{"config": {"layers": [{"name": "input_1", "class_name": "InputLayer", "inbound_nodes": [], "config": {"name": "input_1", "sparse": false, "dtype": "float32", "batch_input_shape": [null, null, null, 3]}}, {"name": "conv1_pad", "class_name": "ZeroPadding2D", "inbound_nodes": [[["input_1", 0, 0, {}]]], "config": {"padding": [[3, 3], [3, 3]], "name": "conv1_pad", "trainable": true, "data_format": "channels_last"}}, {"name": "conv1_conv", "class_name": "Conv2D", "inbound_nodes": [[["conv1_pad", 0, 0, {}]]], "config": {"strides": [2, 2], "trainable": true, "data_format": "channels_last", "bias_initializer": {"config": {}, "class_name": "Zeros"}, "bias_regularizer": null, "kernel_initializer": {"config": {"seed": null, "scale": 1.0, "distribution": "uniform", "mode": "fan_avg"}, "class_name": "VarianceScaling"}, "kernel_regularizer": null, "bias_constraint": null, "filters": 64, "padding": "valid", "dilation_rate": [1, 1], "kernel_size": [7, 7], "name": "conv1_conv", "activity_regularizer": null, "kernel_constraint": null, "activation": "linear", "use_bias": true}}, {"name": "pool1_pad", "class_name": "ZeroPadding2D", "inbound_nodes": [[["conv1_conv", 0, 0, {}]]], "config": {"padding": [[1, 1], [1, 1]], "name": "pool1_pad", "trainable": true, "data_format": "channels_last"}}, {"name": "pool1_pool", "class_name": "MaxPooling2D", "inbound_nodes": [[["pool1_pad", 0, 0, {}]]], "config": {"strides": [2, 2], "trainable": true, "data_format": "channels_last", "pool_size": [3, 3], "padding": "valid", "name": "pool1_pool"}}, {"name": "conv2_block1_preact_bn", "class_name": "BatchNormalization", "inbound_nodes": [[["pool1_pool", 0, 0, {}]]], "config": {"scale": true, "trainable": true, "beta_constraint": null, "beta_initializer": {"config": {}, "class_name": "Zeros"}, "epsilon": 1.001e-05, "gamma_initializer": {"config": {}, "class_name": "Ones"}, "gamma_constraint": null, "axis": 3, "gamma_regularizer": null, "center": true, "moving_variance_initializer": {"config": {}, "class_name": "Ones"}, "moving_mean_initializer": {"config": {}, "class_name": "Zeros"}, "momentum": 0.99, "name": "conv2_block1_preact_bn", "beta_regularizer": null}}, {"name": "conv2_block1_preact_relu", "class_name": "Activation", "inbound_nodes": [[["conv2_block1_preact_bn", 0, 0, {}]]], "config": {"name": "conv2_block1_preact_relu", "trainable": true, "activation": "relu"}}, {"name": "conv2_block1_1_conv", "class_name": "Conv2D", "inbound_nodes": [[["conv2_block1_preact_relu", 0, 0, {}]]], "config": {"strides": [1, 1], "trainable": true, "data_format": "channels_last", "bias_initializer": {"config": {}, "class_name": "Zeros"}, "bias_regularizer": null, "kernel_initializer": {"config": {"seed": null, "scale": 1.0, "distribution": "uniform", "mode": "fan_avg"}, "class_name": "VarianceScaling"}, "kernel_regularizer": null, "bias_constraint": null, "filters": 64, "padding": "valid", "dilation_rate": [1, 1], "kernel_size": [1, 1], "name": "conv2_block1_1_conv", "activity_regularizer": null, "kernel_constraint": null, "activation": "linear", "use_bias": false}}, {"name": "conv2_block1_1_bn", "class_name": "BatchNormalization", "inbound_nodes": [[["conv2_block1_1_conv", 0, 0, {}]]], "config": {"scale": true, "trainable": true, "beta_constraint": null, "beta_initializer": {"config": {}, "class_name": "Zeros"}, "epsilon": 1.001e-05, "gamma_initializer": {"config": {}, "class_name": "Ones"}, "gamma_constraint": null, "axis": 3, "gamma_regularizer": null, "center": true, "moving_variance_initializer": {"config": {}, "class_name": "Ones"}, "moving_mean_initializer": {"config": {}, "class_name": "Zeros"}, "momentum": 0.99, "name": "conv2_block1_1_bn", "beta_regularizer": null}}, {"name": "conv2_block1_1_relu", "class_name": "Activation", "inbound_nodes": [[["conv2_block1_1_bn", 0, 0, {}]]], "config": {"name": "conv2_block1_1_relu", "trainable": true, "activation": "relu"}}, {"name": "conv2_block1_2_pad", "class_name": "ZeroPadding2D", "inbound_nodes": [[["conv2_block1_1_relu", 0, 0, {}]]], "config": {"padding": [[1, 1], [1, 1]], "name": "conv2_block1_2_pad", "trainable": true, "data_format": "channels_last"}}, {"name": "conv2_block1_2_conv", "class_name": "Conv2D", "inbound_nodes": [[["conv2_block1_2_pad", 0, 0, {}]]], "config": {"strides": [1, 1], "trainable": true, "data_format": "channels_last", "bias_initializer": {"config": {}, "class_name": "Zeros"}, "bias_regularizer": null, "kernel_initializer": {"config": {"seed": null, "scale": 1.0, "distribution": "uniform", "mode": "fan_avg"}, "class_name": "VarianceScaling"}, "kernel_regularizer": null, "bias_constraint": null, "filters": 64, "padding": "valid", "dilation_rate": [1, 1], "kernel_size": [3, 3], "name": "conv2_block1_2_conv", "activity_regularizer": null, "kernel_constraint": null, "activation": "linear", "use_bias": false}}, {"name": "conv2_block1_2_bn", "class_name": "BatchNormalization", "inbound_nodes": [[["conv2_block1_2_conv", 0, 0, {}]]], "config": {"scale": true, "trainable": true, "beta_constraint": null, "beta_initializer": {"config": {}, "class_name": "Zeros"}, "epsilon": 1.001e-05, "gamma_initializer": {"config": {}, "class_name": "Ones"}, "gamma_constraint": null, "axis": 3, "gamma_regularizer": null, "center": true, "moving_variance_initializer": {"config": {}, "class_name": "Ones"}, "moving_mean_initializer": {"config": {}, "class_name": "Zeros"}, "momentum": 0.99, "name": "conv2_block1_2_bn", "beta_regularizer": null}}, {"name": "conv2_block1_2_relu", "class_name": "Activation", "inbound_nodes": [[["conv2_block1_2_bn", 0, 0, {}]]], "config": {"name": "conv2_block1_2_relu", "trainable": true, "activation": "relu"}}, {"name": "conv2_block1_0_conv", "class_name": "Conv2D", "inbound_nodes": [[["conv2_block1_preact_relu", 0, 0, {}]]], "config": {"strides": [1, 1], "trainable": true, "data_format": "channels_last", "bias_initializer": {"config": {}, "class_name": "Zeros"}, "bias_regularizer": null, "kernel_initializer": {"config": {"seed": null, "scale": 1.0, "distribution": "uniform", "mode": "fan_avg"}, "class_name": "VarianceScaling"}, "kernel_regularizer": null, "bias_constraint": null, "filters": 256, "padding": "valid", "dilation_rate": [1, 1], "kernel_size": [1, 1], "name": "conv2_block1_0_conv", "activity_regularizer": null, "kernel_constraint": null, "activation": "linear", "use_bias": true}}, {"name": "conv2_block1_3_conv", "class_name": "Conv2D", "inbound_nodes": [[["conv2_block1_2_relu", 0, 0, {}]]], "config": {"strides": [1, 1], "trainable": true, "data_format": "channels_last", "bias_initializer": {"config": {}, "class_name": "Zeros"}, "bias_regularizer": null, "kernel_initializer": {"config": {"seed": null, "scale": 1.0, "distribution": "uniform", "mode": "fan_avg"}, "class_name": "VarianceScaling"}, "kernel_regularizer": null, "bias_constraint": null, "filters": 256, "padding": "valid", "dilation_rate": [1, 1], "kernel_size": [1, 1], "name": "conv2_block1_3_conv", "activity_regularizer": null, "kernel_constraint": null, "activation": "linear", "use_bias": true}}, {"name": "conv2_block1_out", "class_name": "Add", "inbound_nodes": [[["conv2_block1_0_conv", 0, 0, {}], ["conv2_block1_3_conv", 0, 0, {}]]], "config": {"name": "conv2_block1_out", "trainable": true}}, {"name": "conv2_block2_preact_bn", "class_name": "BatchNormalization", "inbound_nodes": [[["conv2_block1_out", 0, 0, {}]]], "config": {"scale": true, "trainable": true, "beta_constraint": null, "beta_initializer": {"config": {}, "class_name": "Zeros"}, "epsilon": 1.001e-05, "gamma_initializer": {"config": {}, "class_name": "Ones"}, "gamma_constraint": null, "axis": 3, "gamma_regularizer": null, "center": true, "moving_variance_initializer": {"config": {}, "class_name": "Ones"}, "moving_mean_initializer": {"config": {}, "class_name": "Zeros"}, "momentum": 0.99, "name": "conv2_block2_preact_bn", "beta_regularizer": null}}, {"name": "conv2_block2_preact_relu", "class_name": "Activation", "inbound_nodes": [[["conv2_block2_preact_bn", 0, 0, {}]]], "config": {"name": "conv2_block2_preact_relu", "trainable": true, "activation": "relu"}}, {"name": "conv2_block2_1_conv", "class_name": "Conv2D", "inbound_nodes": [[["conv2_block2_preact_relu", 0, 0, {}]]], "config": {"strides": [1, 1], "trainable": true, "data_format": "channels_last", "bias_initializer": {"config": {}, "class_name": "Zeros"}, "bias_regularizer": null, "kernel_initializer": {"config": {"seed": null, "scale": 1.0, "distribution": "uniform", "mode": "fan_avg"}, "class_name": "VarianceScaling"}, "kernel_regularizer": null, "bias_constraint": null, "filters": 64, "padding": "valid", "dilation_rate": [1, 1], "kernel_size": [1, 1], "name": "conv2_block2_1_conv", "activity_regularizer": null, "kernel_constraint": null, "activation": "linear", "use_bias": false}}, {"name": "conv2_block2_1_bn", "class_name": "BatchNormalization", "inbound_nodes": [[["conv2_block2_1_conv", 0, 0, {}]]], "config": {"scale": true, "trainable": true, "beta_constraint": null, "beta_initializer": {"config": {}, "class_name": "Zeros"}, "epsilon": 1.001e-05, "gamma_initializer": {"config": {}, "class_name": "Ones"}, "gamma_constraint": null, "axis": 3, "gamma_regularizer": null, "center": true, "moving_variance_initializer": {"config": {}, "class_name": "Ones"}, "moving_mean_initializer": {"config": {}, "class_name": "Zeros"}, "momentum": 0.99, "name": "conv2_block2_1_bn", "beta_regularizer": null}}, {"name": "conv2_block2_1_relu", "class_name": "Activation", "inbound_nodes": [[["conv2_block2_1_bn", 0, 0, {}]]], "config": {"name": "conv2_block2_1_relu", "trainable": true, "activation": "relu"}}, {"name": "conv2_block2_2_pad", "class_name": "ZeroPadding2D", "inbound_nodes": [[["conv2_block2_1_relu", 0, 0, {}]]], "config": {"padding": [[1, 1], [1, 1]], "name": "conv2_block2_2_pad", "trainable": true, "data_format": "channels_last"}}, {"name": "conv2_block2_2_conv", "class_name": "Conv2D", "inbound_nodes": [[["conv2_block2_2_pad", 0, 0, {}]]], "config": {"strides": [1, 1], "trainable": true, "data_format": "channels_last", "bias_initializer": {"config": {}, "class_name": "Zeros"}, "bias_regularizer": null, "kernel_initializer": {"config": {"seed": null, "scale": 1.0, "distribution": "uniform", "mode": "fan_avg"}, "class_name": "VarianceScaling"}, "kernel_regularizer": null, "bias_constraint": null, "filters": 64, "padding": "valid", "dilation_rate": [1, 1], "kernel_size": [3, 3], "name": "conv2_block2_2_conv", "activity_regularizer": null, "kernel_constraint": null, "activation": "linear", "use_bias": false}}, {"name": "conv2_block2_2_bn", "class_name": "BatchNormalization", "inbound_nodes": [[["conv2_block2_2_conv", 0, 0, {}]]], "config": {"scale": true, "trainable": true, "beta_constraint": null, "beta_initializer": {"config": {}, "class_name": "Zeros"}, "epsilon": 1.001e-05, "gamma_initializer": {"config": {}, "class_name": "Ones"}, "gamma_constraint": null, "axis": 3, "gamma_regularizer": null, "center": true, "moving_variance_initializer": {"config": {}, "class_name": "Ones"}, "moving_mean_initializer": {"config": {}, "class_name": "Zeros"}, "momentum": 0.99, "name": "conv2_block2_2_bn", "beta_regularizer": null}}, {"name": "conv2_block2_2_relu", "class_name": "Activation", "inbound_nodes": [[["conv2_block2_2_bn", 0, 0, {}]]], "config": {"name": "conv2_block2_2_relu", "trainable": true, "activation": "relu"}}, {"name": "conv2_block2_3_conv", "class_name": "Conv2D", "inbound_nodes": [[["conv2_block2_2_relu", 0, 0, {}]]], "config": {"strides": [1, 1], "trainable": true, "data_format": "channels_last", "bias_initializer": {"config": {}, "class_name": "Zeros"}, "bias_regularizer": null, "kernel_initializer": {"config": {"seed": null, "scale": 1.0, "distribution": "uniform", "mode": "fan_avg"}, "class_name": "VarianceScaling"}, "kernel_regularizer": null, "bias_constraint": null, "filters": 256, "padding": "valid", "dilation_rate": [1, 1], "kernel_size": [1, 1], "name": "conv2_block2_3_conv", "activity_regularizer": null, "kernel_constraint": null, "activation": "linear", "use_bias": true}}, {"name": "conv2_block2_out", "class_name": "Add", "inbound_nodes": [[["conv2_block1_out", 0, 0, {}], ["conv2_block2_3_conv", 0, 0, {}]]], "config": {"name": "conv2_block2_out", "trainable": true}}, {"name": "conv2_block3_preact_bn", "class_name": "BatchNormalization", "inbound_nodes": [[["conv2_block2_out", 0, 0, {}]]], "config": {"scale": true, "trainable": true, "beta_constraint": null, "beta_initializer": {"config": {}, "class_name": "Zeros"}, "epsilon": 1.001e-05, "gamma_initializer": {"config": {}, "class_name": "Ones"}, "gamma_constraint": null, "axis": 3, "gamma_regularizer": null, "center": true, "moving_variance_initializer": {"config": {}, "class_name": "Ones"}, "moving_mean_initializer": {"config": {}, "class_name": "Zeros"}, "momentum": 0.99, "name": "conv2_block3_preact_bn", "beta_regularizer": null}}, {"name": "conv2_block3_preact_relu", "class_name": "Activation", "inbound_nodes": [[["conv2_block3_preact_bn", 0, 0, {}]]], "config": {"name": "conv2_block3_preact_relu", "trainable": true, "activation": "relu"}}, {"name": "conv2_block3_1_conv", "class_name": "Conv2D", "inbound_nodes": [[["conv2_block3_preact_relu", 0, 0, {}]]], "config": {"strides": [1, 1], "trainable": true, "data_format": "channels_last", "bias_initializer": {"config": {}, "class_name": "Zeros"}, "bias_regularizer": null, "kernel_initializer": {"config": {"seed": null, "scale": 1.0, "distribution": "uniform", "mode": "fan_avg"}, "class_name": "VarianceScaling"}, "kernel_regularizer": null, "bias_constraint": null, "filters": 64, "padding": "valid", "dilation_rate": [1, 1], "kernel_size": [1, 1], "name": "conv2_block3_1_conv", "activity_regularizer": null, "kernel_constraint": null, "activation": "linear", "use_bias": false}}, {"name": "conv2_block3_1_bn", "class_name": "BatchNormalization", "inbound_nodes": [[["conv2_block3_1_conv", 0, 0, {}]]], "config": {"scale": true, "trainable": true, "beta_constraint": null, "beta_initializer": {"config": {}, "class_name": "Zeros"}, "epsilon": 1.001e-05, "gamma_initializer": {"config": {}, "class_name": "Ones"}, "gamma_constraint": null, "axis": 3, "gamma_regularizer": null, "center": true, "moving_variance_initializer": {"config": {}, "class_name": "Ones"}, "moving_mean_initializer": {"config": {}, "class_name": "Zeros"}, "momentum": 0.99, "name": "conv2_block3_1_bn", "beta_regularizer": null}}, {"name": "conv2_block3_1_relu", "class_name": "Activation", "inbound_nodes": [[["conv2_block3_1_bn", 0, 0, {}]]], "config": {"name": "conv2_block3_1_relu", "trainable": true, "activation": "relu"}}, {"name": "conv2_block3_2_pad", "class_name": "ZeroPadding2D", "inbound_nodes": [[["conv2_block3_1_relu", 0, 0, {}]]], "config": {"padding": [[1, 1], [1, 1]], "name": "conv2_block3_2_pad", "trainable": true, "data_format": "channels_last"}}, {"name": "conv2_block3_2_conv", "class_name": "Conv2D", "inbound_nodes": [[["conv2_block3_2_pad", 0, 0, {}]]], "config": {"strides": [2, 2], "trainable": true, "data_format": "channels_last", "bias_initializer": {"config": {}, "class_name": "Zeros"}, "bias_regularizer": null, "kernel_initializer": {"config": {"seed": null, "scale": 1.0, "distribution": "uniform", "mode": "fan_avg"}, "class_name": "VarianceScaling"}, "kernel_regularizer": null, "bias_constraint": null, "filters": 64, "padding": "valid", "dilation_rate": [1, 1], "kernel_size": [3, 3], "name": "conv2_block3_2_conv", "activity_regularizer": null, "kernel_constraint": null, "activation": "linear", "use_bias": false}}, {"name": "conv2_block3_2_bn", "class_name": "BatchNormalization", "inbound_nodes": [[["conv2_block3_2_conv", 0, 0, {}]]], "config": {"scale": true, "trainable": true, "beta_constraint": null, "beta_initializer": {"config": {}, "class_name": "Zeros"}, "epsilon": 1.001e-05, "gamma_initializer": {"config": {}, "class_name": "Ones"}, "gamma_constraint": null, "axis": 3, "gamma_regularizer": null, "center": true, "moving_variance_initializer": {"config": {}, "class_name": "Ones"}, "moving_mean_initializer": {"config": {}, "class_name": "Zeros"}, "momentum": 0.99, "name": "conv2_block3_2_bn", "beta_regularizer": null}}, {"name": "conv2_block3_2_relu", "class_name": "Activation", "inbound_nodes": [[["conv2_block3_2_bn", 0, 0, {}]]], "config": {"name": "conv2_block3_2_relu", "trainable": true, "activation": "relu"}}, {"name": "max_pooling2d_1", "class_name": "MaxPooling2D", "inbound_nodes": [[["conv2_block2_out", 0, 0, {}]]], "config": {"strides": [2, 2], "trainable": true, "data_format": "channels_last", "pool_size": [1, 1], "padding": "valid", "name": "max_pooling2d_1"}}, {"name": "conv2_block3_3_conv", "class_name": "Conv2D", "inbound_nodes": [[["conv2_block3_2_relu", 0, 0, {}]]], "config": {"strides": [1, 1], "trainable": true, "data_format": "channels_last", "bias_initializer": {"config": {}, "class_name": "Zeros"}, "bias_regularizer": null, "kernel_initializer": {"config": {"seed": null, "scale": 1.0, "distribution": "uniform", "mode": "fan_avg"}, "class_name": "VarianceScaling"}, "kernel_regularizer": null, "bias_constraint": null, "filters": 256, "padding": "valid", "dilation_rate": [1, 1], "kernel_size": [1, 1], "name": "conv2_block3_3_conv", "activity_regularizer": null, "kernel_constraint": null, "activation": "linear", "use_bias": true}}, {"name": "conv2_block3_out", "class_name": "Add", "inbound_nodes": [[["max_pooling2d_1", 0, 0, {}], ["conv2_block3_3_conv", 0, 0, {}]]], "config": {"name": "conv2_block3_out", "trainable": true}}, {"name": "conv3_block1_preact_bn", "class_name": "BatchNormalization", "inbound_nodes": [[["conv2_block3_out", 0, 0, {}]]], "config": {"scale": true, "trainable": true, "beta_constraint": null, "beta_initializer": {"config": {}, "class_name": "Zeros"}, "epsilon": 1.001e-05, "gamma_initializer": {"config": {}, "class_name": "Ones"}, "gamma_constraint": null, "axis": 3, "gamma_regularizer": null, "center": true, "moving_variance_initializer": {"config": {}, "class_name": "Ones"}, "moving_mean_initializer": {"config": {}, "class_name": "Zeros"}, "momentum": 0.99, "name": "conv3_block1_preact_bn", "beta_regularizer": null}}, {"name": "conv3_block1_preact_relu", "class_name": "Activation", "inbound_nodes": [[["conv3_block1_preact_bn", 0, 0, {}]]], "config": {"name": "conv3_block1_preact_relu", "trainable": true, "activation": "relu"}}, {"name": "conv3_block1_1_conv", "class_name": "Conv2D", "inbound_nodes": [[["conv3_block1_preact_relu", 0, 0, {}]]], "config": {"strides": [1, 1], "trainable": true, "data_format": "channels_last", "bias_initializer": {"config": {}, "class_name": "Zeros"}, "bias_regularizer": null, "kernel_initializer": {"config": {"seed": null, "scale": 1.0, "distribution": "uniform", "mode": "fan_avg"}, "class_name": "VarianceScaling"}, "kernel_regularizer": null, "bias_constraint": null, "filters": 128, "padding": "valid", "dilation_rate": [1, 1], "kernel_size": [1, 1], "name": "conv3_block1_1_conv", "activity_regularizer": null, "kernel_constraint": null, "activation": "linear", "use_bias": false}}, {"name": "conv3_block1_1_bn", "class_name": "BatchNormalization", "inbound_nodes": [[["conv3_block1_1_conv", 0, 0, {}]]], "config": {"scale": true, "trainable": true, "beta_constraint": null, "beta_initializer": {"config": {}, "class_name": "Zeros"}, "epsilon": 1.001e-05, "gamma_initializer": {"config": {}, "class_name": "Ones"}, "gamma_constraint": null, "axis": 3, "gamma_regularizer": null, "center": true, "moving_variance_initializer": {"config": {}, "class_name": "Ones"}, "moving_mean_initializer": {"config": {}, "class_name": "Zeros"}, "momentum": 0.99, "name": "conv3_block1_1_bn", "beta_regularizer": null}}, {"name": "conv3_block1_1_relu", "class_name": "Activation", "inbound_nodes": [[["conv3_block1_1_bn", 0, 0, {}]]], "config": {"name": "conv3_block1_1_relu", "trainable": true, "activation": "relu"}}, {"name": "conv3_block1_2_pad", "class_name": "ZeroPadding2D", "inbound_nodes": [[["conv3_block1_1_relu", 0, 0, {}]]], "config": {"padding": [[1, 1], [1, 1]], "name": "conv3_block1_2_pad", "trainable": true, "data_format": "channels_last"}}, {"name": "conv3_block1_2_conv", "class_name": "Conv2D", "inbound_nodes": [[["conv3_block1_2_pad", 0, 0, {}]]], "config": {"strides": [1, 1], "trainable": true, "data_format": "channels_last", "bias_initializer": {"config": {}, "class_name": "Zeros"}, "bias_regularizer": null, "kernel_initializer": {"config": {"seed": null, "scale": 1.0, "distribution": "uniform", "mode": "fan_avg"}, "class_name": "VarianceScaling"}, "kernel_regularizer": null, "bias_constraint": null, "filters": 128, "padding": "valid", "dilation_rate": [1, 1], "kernel_size": [3, 3], "name": "conv3_block1_2_conv", "activity_regularizer": null, "kernel_constraint": null, "activation": "linear", "use_bias": false}}, {"name": "conv3_block1_2_bn", "class_name": "BatchNormalization", "inbound_nodes": [[["conv3_block1_2_conv", 0, 0, {}]]], "config": {"scale": true, "trainable": true, "beta_constraint": null, "beta_initializer": {"config": {}, "class_name": "Zeros"}, "epsilon": 1.001e-05, "gamma_initializer": {"config": {}, "class_name": "Ones"}, "gamma_constraint": null, "axis": 3, "gamma_regularizer": null, "center": true, "moving_variance_initializer": {"config": {}, "class_name": "Ones"}, "moving_mean_initializer": {"config": {}, "class_name": "Zeros"}, "momentum": 0.99, "name": "conv3_block1_2_bn", "beta_regularizer": null}}, {"name": "conv3_block1_2_relu", "class_name": "Activation", "inbound_nodes": [[["conv3_block1_2_bn", 0, 0, {}]]], "config": {"name": "conv3_block1_2_relu", "trainable": true, "activation": "relu"}}, {"name": "conv3_block1_0_conv", "class_name": "Conv2D", "inbound_nodes": [[["conv3_block1_preact_relu", 0, 0, {}]]], "config": {"strides": [1, 1], "trainable": true, "data_format": "channels_last", "bias_initializer": {"config": {}, "class_name": "Zeros"}, "bias_regularizer": null, "kernel_initializer": {"config": {"seed": null, "scale": 1.0, "distribution": "uniform", "mode": "fan_avg"}, "class_name": "VarianceScaling"}, "kernel_regularizer": null, "bias_constraint": null, "filters": 512, "padding": "valid", "dilation_rate": [1, 1], "kernel_size": [1, 1], "name": "conv3_block1_0_conv", "activity_regularizer": null, "kernel_constraint": null, "activation": "linear", "use_bias": true}}, {"name": "conv3_block1_3_conv", "class_name": "Conv2D", "inbound_nodes": [[["conv3_block1_2_relu", 0, 0, {}]]], "config": {"strides": [1, 1], "trainable": true, "data_format": "channels_last", "bias_initializer": {"config": {}, "class_name": "Zeros"}, "bias_regularizer": null, "kernel_initializer": {"config": {"seed": null, "scale": 1.0, "distribution": "uniform", "mode": "fan_avg"}, "class_name": "VarianceScaling"}, "kernel_regularizer": null, "bias_constraint": null, "filters": 512, "padding": "valid", "dilation_rate": [1, 1], "kernel_size": [1, 1], "name": "conv3_block1_3_conv", "activity_regularizer": null, "kernel_constraint": null, "activation": "linear", "use_bias": true}}, {"name": "conv3_block1_out", "class_name": "Add", "inbound_nodes": [[["conv3_block1_0_conv", 0, 0, {}], ["conv3_block1_3_conv", 0, 0, {}]]], "config": {"name": "conv3_block1_out", "trainable": true}}, {"name": "conv3_block2_preact_bn", "class_name": "BatchNormalization", "inbound_nodes": [[["conv3_block1_out", 0, 0, {}]]], "config": {"scale": true, "trainable": true, "beta_constraint": null, "beta_initializer": {"config": {}, "class_name": "Zeros"}, "epsilon": 1.001e-05, "gamma_initializer": {"config": {}, "class_name": "Ones"}, "gamma_constraint": null, "axis": 3, "gamma_regularizer": null, "center": true, "moving_variance_initializer": {"config": {}, "class_name": "Ones"}, "moving_mean_initializer": {"config": {}, "class_name": "Zeros"}, "momentum": 0.99, "name": "conv3_block2_preact_bn", "beta_regularizer": null}}, {"name": "conv3_block2_preact_relu", "class_name": "Activation", "inbound_nodes": [[["conv3_block2_preact_bn", 0, 0, {}]]], "config": {"name": "conv3_block2_preact_relu", "trainable": true, "activation": "relu"}}, {"name": "conv3_block2_1_conv", "class_name": "Conv2D", "inbound_nodes": [[["conv3_block2_preact_relu", 0, 0, {}]]], "config": {"strides": [1, 1], "trainable": true, "data_format": "channels_last", "bias_initializer": {"config": {}, "class_name": "Zeros"}, "bias_regularizer": null, "kernel_initializer": {"config": {"seed": null, "scale": 1.0, "distribution": "uniform", "mode": "fan_avg"}, "class_name": "VarianceScaling"}, "kernel_regularizer": null, "bias_constraint": null, "filters": 128, "padding": "valid", "dilation_rate": [1, 1], "kernel_size": [1, 1], "name": "conv3_block2_1_conv", "activity_regularizer": null, "kernel_constraint": null, "activation": "linear", "use_bias": false}}, {"name": "conv3_block2_1_bn", "class_name": "BatchNormalization", "inbound_nodes": [[["conv3_block2_1_conv", 0, 0, {}]]], "config": {"scale": true, "trainable": true, "beta_constraint": null, "beta_initializer": {"config": {}, "class_name": "Zeros"}, "epsilon": 1.001e-05, "gamma_initializer": {"config": {}, "class_name": "Ones"}, "gamma_constraint": null, "axis": 3, "gamma_regularizer": null, "center": true, "moving_variance_initializer": {"config": {}, "class_name": "Ones"}, "moving_mean_initializer": {"config": {}, "class_name": "Zeros"}, "momentum": 0.99, "name": "conv3_block2_1_bn", "beta_regularizer": null}}, {"name": "conv3_block2_1_relu", "class_name": "Activation", "inbound_nodes": [[["conv3_block2_1_bn", 0, 0, {}]]], "config": {"name": "conv3_block2_1_relu", "trainable": true, "activation": "relu"}}, {"name": "conv3_block2_2_pad", "class_name": "ZeroPadding2D", "inbound_nodes": [[["conv3_block2_1_relu", 0, 0, {}]]], "config": {"padding": [[1, 1], [1, 1]], "name": "conv3_block2_2_pad", "trainable": true, "data_format": "channels_last"}}, {"name": "conv3_block2_2_conv", "class_name": "Conv2D", "inbound_nodes": [[["conv3_block2_2_pad", 0, 0, {}]]], "config": {"strides": [1, 1], "trainable": true, "data_format": "channels_last", "bias_initializer": {"config": {}, "class_name": "Zeros"}, "bias_regularizer": null, "kernel_initializer": {"config": {"seed": null, "scale": 1.0, "distribution": "uniform", "mode": "fan_avg"}, "class_name": "VarianceScaling"}, "kernel_regularizer": null, "bias_constraint": null, "filters": 128, "padding": "valid", "dilation_rate": [1, 1], "kernel_size": [3, 3], "name": "conv3_block2_2_conv", "activity_regularizer": null, "kernel_constraint": null, "activation": "linear", "use_bias": false}}, {"name": "conv3_block2_2_bn", "class_name": "BatchNormalization", "inbound_nodes": [[["conv3_block2_2_conv", 0, 0, {}]]], "config": {"scale": true, "trainable": true, "beta_constraint": null, "beta_initializer": {"config": {}, "class_name": "Zeros"}, "epsilon": 1.001e-05, "gamma_initializer": {"config": {}, "class_name": "Ones"}, "gamma_constraint": null, "axis": 3, "gamma_regularizer": null, "center": true, "moving_variance_initializer": {"config": {}, "class_name": "Ones"}, "moving_mean_initializer": {"config": {}, "class_name": "Zeros"}, "momentum": 0.99, "name": "conv3_block2_2_bn", "beta_regularizer": null}}, {"name": "conv3_block2_2_relu", "class_name": "Activation", "inbound_nodes": [[["conv3_block2_2_bn", 0, 0, {}]]], "config": {"name": "conv3_block2_2_relu", "trainable": true, "activation": "relu"}}, {"name": "conv3_block2_3_conv", "class_name": "Conv2D", "inbound_nodes": [[["conv3_block2_2_relu", 0, 0, {}]]], "config": {"strides": [1, 1], "trainable": true, "data_format": "channels_last", "bias_initializer": {"config": {}, "class_name": "Zeros"}, "bias_regularizer": null, "kernel_initializer": {"config": {"seed": null, "scale": 1.0, "distribution": "uniform", "mode": "fan_avg"}, "class_name": "VarianceScaling"}, "kernel_regularizer": null, "bias_constraint": null, "filters": 512, "padding": "valid", "dilation_rate": [1, 1], "kernel_size": [1, 1], "name": "conv3_block2_3_conv", "activity_regularizer": null, "kernel_constraint": null, "activation": "linear", "use_bias": true}}, {"name": "conv3_block2_out", "class_name": "Add", "inbound_nodes": [[["conv3_block1_out", 0, 0, {}], ["conv3_block2_3_conv", 0, 0, {}]]], "config": {"name": "conv3_block2_out", "trainable": true}}, {"name": "conv3_block3_preact_bn", "class_name": "BatchNormalization", "inbound_nodes": [[["conv3_block2_out", 0, 0, {}]]], "config": {"scale": true, "trainable": true, "beta_constraint": null, "beta_initializer": {"config": {}, "class_name": "Zeros"}, "epsilon": 1.001e-05, "gamma_initializer": {"config": {}, "class_name": "Ones"}, "gamma_constraint": null, "axis": 3, "gamma_regularizer": null, "center": true, "moving_variance_initializer": {"config": {}, "class_name": "Ones"}, "moving_mean_initializer": {"config": {}, "class_name": "Zeros"}, "momentum": 0.99, "name": "conv3_block3_preact_bn", "beta_regularizer": null}}, {"name": "conv3_block3_preact_relu", "class_name": "Activation", "inbound_nodes": [[["conv3_block3_preact_bn", 0, 0, {}]]], "config": {"name": "conv3_block3_preact_relu", "trainable": true, "activation": "relu"}}, {"name": "conv3_block3_1_conv", "class_name": "Conv2D", "inbound_nodes": [[["conv3_block3_preact_relu", 0, 0, {}]]], "config": {"strides": [1, 1], "trainable": true, "data_format": "channels_last", "bias_initializer": {"config": {}, "class_name": "Zeros"}, "bias_regularizer": null, "kernel_initializer": {"config": {"seed": null, "scale": 1.0, "distribution": "uniform", "mode": "fan_avg"}, "class_name": "VarianceScaling"}, "kernel_regularizer": null, "bias_constraint": null, "filters": 128, "padding": "valid", "dilation_rate": [1, 1], "kernel_size": [1, 1], "name": "conv3_block3_1_conv", "activity_regularizer": null, "kernel_constraint": null, "activation": "linear", "use_bias": false}}, {"name": "conv3_block3_1_bn", "class_name": "BatchNormalization", "inbound_nodes": [[["conv3_block3_1_conv", 0, 0, {}]]], "config": {"scale": true, "trainable": true, "beta_constraint": null, "beta_initializer": {"config": {}, "class_name": "Zeros"}, "epsilon": 1.001e-05, "gamma_initializer": {"config": {}, "class_name": "Ones"}, "gamma_constraint": null, "axis": 3, "gamma_regularizer": null, "center": true, "moving_variance_initializer": {"config": {}, "class_name": "Ones"}, "moving_mean_initializer": {"config": {}, "class_name": "Zeros"}, "momentum": 0.99, "name": "conv3_block3_1_bn", "beta_regularizer": null}}, {"name": "conv3_block3_1_relu", "class_name": "Activation", "inbound_nodes": [[["conv3_block3_1_bn", 0, 0, {}]]], "config": {"name": "conv3_block3_1_relu", "trainable": true, "activation": "relu"}}, {"name": "conv3_block3_2_pad", "class_name": "ZeroPadding2D", "inbound_nodes": [[["conv3_block3_1_relu", 0, 0, {}]]], "config": {"padding": [[1, 1], [1, 1]], "name": "conv3_block3_2_pad", "trainable": true, "data_format": "channels_last"}}, {"name": "conv3_block3_2_conv", "class_name": "Conv2D", "inbound_nodes": [[["conv3_block3_2_pad", 0, 0, {}]]], "config": {"strides": [1, 1], "trainable": true, "data_format": "channels_last", "bias_initializer": {"config": {}, "class_name": "Zeros"}, "bias_regularizer": null, "kernel_initializer": {"config": {"seed": null, "scale": 1.0, "distribution": "uniform", "mode": "fan_avg"}, "class_name": "VarianceScaling"}, "kernel_regularizer": null, "bias_constraint": null, "filters": 128, "padding": "valid", "dilation_rate": [1, 1], "kernel_size": [3, 3], "name": "conv3_block3_2_conv", "activity_regularizer": null, "kernel_constraint": null, "activation": "linear", "use_bias": false}}, {"name": "conv3_block3_2_bn", "class_name": "BatchNormalization", "inbound_nodes": [[["conv3_block3_2_conv", 0, 0, {}]]], "config": {"scale": true, "trainable": true, "beta_constraint": null, "beta_initializer": {"config": {}, "class_name": "Zeros"}, "epsilon": 1.001e-05, "gamma_initializer": {"config": {}, "class_name": "Ones"}, "gamma_constraint": null, "axis": 3, "gamma_regularizer": null, "center": true, "moving_variance_initializer": {"config": {}, "class_name": "Ones"}, "moving_mean_initializer": {"config": {}, "class_name": "Zeros"}, "momentum": 0.99, "name": "conv3_block3_2_bn", "beta_regularizer": null}}, {"name": "conv3_block3_2_relu", "class_name": "Activation", "inbound_nodes": [[["conv3_block3_2_bn", 0, 0, {}]]], "config": {"name": "conv3_block3_2_relu", "trainable": true, "activation": "relu"}}, {"name": "conv3_block3_3_conv", "class_name": "Conv2D", "inbound_nodes": [[["conv3_block3_2_relu", 0, 0, {}]]], "config": {"strides": [1, 1], "trainable": true, "data_format": "channels_last", "bias_initializer": {"config": {}, "class_name": "Zeros"}, "bias_regularizer": null, "kernel_initializer": {"config": {"seed": null, "scale": 1.0, "distribution": "uniform", "mode": "fan_avg"}, "class_name": "VarianceScaling"}, "kernel_regularizer": null, "bias_constraint": null, "filters": 512, "padding": "valid", "dilation_rate": [1, 1], "kernel_size": [1, 1], "name": "conv3_block3_3_conv", "activity_regularizer": null, "kernel_constraint": null, "activation": "linear", "use_bias": true}}, {"name": "conv3_block3_out", "class_name": "Add", "inbound_nodes": [[["conv3_block2_out", 0, 0, {}], ["conv3_block3_3_conv", 0, 0, {}]]], "config": {"name": "conv3_block3_out", "trainable": true}}, {"name": "conv3_block4_preact_bn", "class_name": "BatchNormalization", "inbound_nodes": [[["conv3_block3_out", 0, 0, {}]]], "config": {"scale": true, "trainable": true, "beta_constraint": null, "beta_initializer": {"config": {}, "class_name": "Zeros"}, "epsilon": 1.001e-05, "gamma_initializer": {"config": {}, "class_name": "Ones"}, "gamma_constraint": null, "axis": 3, "gamma_regularizer": null, "center": true, "moving_variance_initializer": {"config": {}, "class_name": "Ones"}, "moving_mean_initializer": {"config": {}, "class_name": "Zeros"}, "momentum": 0.99, "name": "conv3_block4_preact_bn", "beta_regularizer": null}}, {"name": "conv3_block4_preact_relu", "class_name": "Activation", "inbound_nodes": [[["conv3_block4_preact_bn", 0, 0, {}]]], "config": {"name": "conv3_block4_preact_relu", "trainable": true, "activation": "relu"}}, {"name": "conv3_block4_1_conv", "class_name": "Conv2D", "inbound_nodes": [[["conv3_block4_preact_relu", 0, 0, {}]]], "config": {"strides": [1, 1], "trainable": true, "data_format": "channels_last", "bias_initializer": {"config": {}, "class_name": "Zeros"}, "bias_regularizer": null, "kernel_initializer": {"config": {"seed": null, "scale": 1.0, "distribution": "uniform", "mode": "fan_avg"}, "class_name": "VarianceScaling"}, "kernel_regularizer": null, "bias_constraint": null, "filters": 128, "padding": "valid", "dilation_rate": [1, 1], "kernel_size": [1, 1], "name": "conv3_block4_1_conv", "activity_regularizer": null, "kernel_constraint": null, "activation": "linear", "use_bias": false}}, {"name": "conv3_block4_1_bn", "class_name": "BatchNormalization", "inbound_nodes": [[["conv3_block4_1_conv", 0, 0, {}]]], "config": {"scale": true, "trainable": true, "beta_constraint": null, "beta_initializer": {"config": {}, "class_name": "Zeros"}, "epsilon": 1.001e-05, "gamma_initializer": {"config": {}, "class_name": "Ones"}, "gamma_constraint": null, "axis": 3, "gamma_regularizer": null, "center": true, "moving_variance_initializer": {"config": {}, "class_name": "Ones"}, "moving_mean_initializer": {"config": {}, "class_name": "Zeros"}, "momentum": 0.99, "name": "conv3_block4_1_bn", "beta_regularizer": null}}, {"name": "conv3_block4_1_relu", "class_name": "Activation", "inbound_nodes": [[["conv3_block4_1_bn", 0, 0, {}]]], "config": {"name": "conv3_block4_1_relu", "trainable": true, "activation": "relu"}}, {"name": "conv3_block4_2_pad", "class_name": "ZeroPadding2D", "inbound_nodes": [[["conv3_block4_1_relu", 0, 0, {}]]], "config": {"padding": [[1, 1], [1, 1]], "name": "conv3_block4_2_pad", "trainable": true, "data_format": "channels_last"}}, {"name": "conv3_block4_2_conv", "class_name": "Conv2D", "inbound_nodes": [[["conv3_block4_2_pad", 0, 0, {}]]], "config": {"strides": [2, 2], "trainable": true, "data_format": "channels_last", "bias_initializer": {"config": {}, "class_name": "Zeros"}, "bias_regularizer": null, "kernel_initializer": {"config": {"seed": null, "scale": 1.0, "distribution": "uniform", "mode": "fan_avg"}, "class_name": "VarianceScaling"}, "kernel_regularizer": null, "bias_constraint": null, "filters": 128, "padding": "valid", "dilation_rate": [1, 1], "kernel_size": [3, 3], "name": "conv3_block4_2_conv", "activity_regularizer": null, "kernel_constraint": null, "activation": "linear", "use_bias": false}}, {"name": "conv3_block4_2_bn", "class_name": "BatchNormalization", "inbound_nodes": [[["conv3_block4_2_conv", 0, 0, {}]]], "config": {"scale": true, "trainable": true, "beta_constraint": null, "beta_initializer": {"config": {}, "class_name": "Zeros"}, "epsilon": 1.001e-05, "gamma_initializer": {"config": {}, "class_name": "Ones"}, "gamma_constraint": null, "axis": 3, "gamma_regularizer": null, "center": true, "moving_variance_initializer": {"config": {}, "class_name": "Ones"}, "moving_mean_initializer": {"config": {}, "class_name": "Zeros"}, "momentum": 0.99, "name": "conv3_block4_2_bn", "beta_regularizer": null}}, {"name": "conv3_block4_2_relu", "class_name": "Activation", "inbound_nodes": [[["conv3_block4_2_bn", 0, 0, {}]]], "config": {"name": "conv3_block4_2_relu", "trainable": true, "activation": "relu"}}, {"name": "max_pooling2d_2", "class_name": "MaxPooling2D", "inbound_nodes": [[["conv3_block3_out", 0, 0, {}]]], "config": {"strides": [2, 2], "trainable": true, "data_format": "channels_last", "pool_size": [1, 1], "padding": "valid", "name": "max_pooling2d_2"}}, {"name": "conv3_block4_3_conv", "class_name": "Conv2D", "inbound_nodes": [[["conv3_block4_2_relu", 0, 0, {}]]], "config": {"strides": [1, 1], "trainable": true, "data_format": "channels_last", "bias_initializer": {"config": {}, "class_name": "Zeros"}, "bias_regularizer": null, "kernel_initializer": {"config": {"seed": null, "scale": 1.0, "distribution": "uniform", "mode": "fan_avg"}, "class_name": "VarianceScaling"}, "kernel_regularizer": null, "bias_constraint": null, "filters": 512, "padding": "valid", "dilation_rate": [1, 1], "kernel_size": [1, 1], "name": "conv3_block4_3_conv", "activity_regularizer": null, "kernel_constraint": null, "activation": "linear", "use_bias": true}}, {"name": "conv3_block4_out", "class_name": "Add", "inbound_nodes": [[["max_pooling2d_2", 0, 0, {}], ["conv3_block4_3_conv", 0, 0, {}]]], "config": {"name": "conv3_block4_out", "trainable": true}}, {"name": "conv4_block1_preact_bn", "class_name": "BatchNormalization", "inbound_nodes": [[["conv3_block4_out", 0, 0, {}]]], "config": {"scale": true, "trainable": true, "beta_constraint": null, "beta_initializer": {"config": {}, "class_name": "Zeros"}, "epsilon": 1.001e-05, "gamma_initializer": {"config": {}, "class_name": "Ones"}, "gamma_constraint": null, "axis": 3, "gamma_regularizer": null, "center": true, "moving_variance_initializer": {"config": {}, "class_name": "Ones"}, "moving_mean_initializer": {"config": {}, "class_name": "Zeros"}, "momentum": 0.99, "name": "conv4_block1_preact_bn", "beta_regularizer": null}}, {"name": "conv4_block1_preact_relu", "class_name": "Activation", "inbound_nodes": [[["conv4_block1_preact_bn", 0, 0, {}]]], "config": {"name": "conv4_block1_preact_relu", "trainable": true, "activation": "relu"}}, {"name": "conv4_block1_1_conv", "class_name": "Conv2D", "inbound_nodes": [[["conv4_block1_preact_relu", 0, 0, {}]]], "config": {"strides": [1, 1], "trainable": true, "data_format": "channels_last", "bias_initializer": {"config": {}, "class_name": "Zeros"}, "bias_regularizer": null, "kernel_initializer": {"config": {"seed": null, "scale": 1.0, "distribution": "uniform", "mode": "fan_avg"}, "class_name": "VarianceScaling"}, "kernel_regularizer": null, "bias_constraint": null, "filters": 256, "padding": "valid", "dilation_rate": [1, 1], "kernel_size": [1, 1], "name": "conv4_block1_1_conv", "activity_regularizer": null, "kernel_constraint": null, "activation": "linear", "use_bias": false}}, {"name": "conv4_block1_1_bn", "class_name": "BatchNormalization", "inbound_nodes": [[["conv4_block1_1_conv", 0, 0, {}]]], "config": {"scale": true, "trainable": true, "beta_constraint": null, "beta_initializer": {"config": {}, "class_name": "Zeros"}, "epsilon": 1.001e-05, "gamma_initializer": {"config": {}, "class_name": "Ones"}, "gamma_constraint": null, "axis": 3, "gamma_regularizer": null, "center": true, "moving_variance_initializer": {"config": {}, "class_name": "Ones"}, "moving_mean_initializer": {"config": {}, "class_name": "Zeros"}, "momentum": 0.99, "name": "conv4_block1_1_bn", "beta_regularizer": null}}, {"name": "conv4_block1_1_relu", "class_name": "Activation", "inbound_nodes": [[["conv4_block1_1_bn", 0, 0, {}]]], "config": {"name": "conv4_block1_1_relu", "trainable": true, "activation": "relu"}}, {"name": "conv4_block1_2_pad", "class_name": "ZeroPadding2D", "inbound_nodes": [[["conv4_block1_1_relu", 0, 0, {}]]], "config": {"padding": [[1, 1], [1, 1]], "name": "conv4_block1_2_pad", "trainable": true, "data_format": "channels_last"}}, {"name": "conv4_block1_2_conv", "class_name": "Conv2D", "inbound_nodes": [[["conv4_block1_2_pad", 0, 0, {}]]], "config": {"strides": [1, 1], "trainable": true, "data_format": "channels_last", "bias_initializer": {"config": {}, "class_name": "Zeros"}, "bias_regularizer": null, "kernel_initializer": {"config": {"seed": null, "scale": 1.0, "distribution": "uniform", "mode": "fan_avg"}, "class_name": "VarianceScaling"}, "kernel_regularizer": null, "bias_constraint": null, "filters": 256, "padding": "valid", "dilation_rate": [1, 1], "kernel_size": [3, 3], "name": "conv4_block1_2_conv", "activity_regularizer": null, "kernel_constraint": null, "activation": "linear", "use_bias": false}}, {"name": "conv4_block1_2_bn", "class_name": "BatchNormalization", "inbound_nodes": [[["conv4_block1_2_conv", 0, 0, {}]]], "config": {"scale": true, "trainable": true, "beta_constraint": null, "beta_initializer": {"config": {}, "class_name": "Zeros"}, "epsilon": 1.001e-05, "gamma_initializer": {"config": {}, "class_name": "Ones"}, "gamma_constraint": null, "axis": 3, "gamma_regularizer": null, "center": true, "moving_variance_initializer": {"config": {}, "class_name": "Ones"}, "moving_mean_initializer": {"config": {}, "class_name": "Zeros"}, "momentum": 0.99, "name": "conv4_block1_2_bn", "beta_regularizer": null}}, {"name": "conv4_block1_2_relu", "class_name": "Activation", "inbound_nodes": [[["conv4_block1_2_bn", 0, 0, {}]]], "config": {"name": "conv4_block1_2_relu", "trainable": true, "activation": "relu"}}, {"name": "conv4_block1_0_conv", "class_name": "Conv2D", "inbound_nodes": [[["conv4_block1_preact_relu", 0, 0, {}]]], "config": {"strides": [1, 1], "trainable": true, "data_format": "channels_last", "bias_initializer": {"config": {}, "class_name": "Zeros"}, "bias_regularizer": null, "kernel_initializer": {"config": {"seed": null, "scale": 1.0, "distribution": "uniform", "mode": "fan_avg"}, "class_name": "VarianceScaling"}, "kernel_regularizer": null, "bias_constraint": null, "filters": 1024, "padding": "valid", "dilation_rate": [1, 1], "kernel_size": [1, 1], "name": "conv4_block1_0_conv", "activity_regularizer": null, "kernel_constraint": null, "activation": "linear", "use_bias": true}}, {"name": "conv4_block1_3_conv", "class_name": "Conv2D", "inbound_nodes": [[["conv4_block1_2_relu", 0, 0, {}]]], "config": {"strides": [1, 1], "trainable": true, "data_format": "channels_last", "bias_initializer": {"config": {}, "class_name": "Zeros"}, "bias_regularizer": null, "kernel_initializer": {"config": {"seed": null, "scale": 1.0, "distribution": "uniform", "mode": "fan_avg"}, "class_name": "VarianceScaling"}, "kernel_regularizer": null, "bias_constraint": null, "filters": 1024, "padding": "valid", "dilation_rate": [1, 1], "kernel_size": [1, 1], "name": "conv4_block1_3_conv", "activity_regularizer": null, "kernel_constraint": null, "activation": "linear", "use_bias": true}}, {"name": "conv4_block1_out", "class_name": "Add", "inbound_nodes": [[["conv4_block1_0_conv", 0, 0, {}], ["conv4_block1_3_conv", 0, 0, {}]]], "config": {"name": "conv4_block1_out", "trainable": true}}, {"name": "conv4_block2_preact_bn", "class_name": "BatchNormalization", "inbound_nodes": [[["conv4_block1_out", 0, 0, {}]]], "config": {"scale": true, "trainable": true, "beta_constraint": null, "beta_initializer": {"config": {}, "class_name": "Zeros"}, "epsilon": 1.001e-05, "gamma_initializer": {"config": {}, "class_name": "Ones"}, "gamma_constraint": null, "axis": 3, "gamma_regularizer": null, "center": true, "moving_variance_initializer": {"config": {}, "class_name": "Ones"}, "moving_mean_initializer": {"config": {}, "class_name": "Zeros"}, "momentum": 0.99, "name": "conv4_block2_preact_bn", "beta_regularizer": null}}, {"name": "conv4_block2_preact_relu", "class_name": "Activation", "inbound_nodes": [[["conv4_block2_preact_bn", 0, 0, {}]]], "config": {"name": "conv4_block2_preact_relu", "trainable": true, "activation": "relu"}}, {"name": "conv4_block2_1_conv", "class_name": "Conv2D", "inbound_nodes": [[["conv4_block2_preact_relu", 0, 0, {}]]], "config": {"strides": [1, 1], "trainable": true, "data_format": "channels_last", "bias_initializer": {"config": {}, "class_name": "Zeros"}, "bias_regularizer": null, "kernel_initializer": {"config": {"seed": null, "scale": 1.0, "distribution": "uniform", "mode": "fan_avg"}, "class_name": "VarianceScaling"}, "kernel_regularizer": null, "bias_constraint": null, "filters": 256, "padding": "valid", "dilation_rate": [1, 1], "kernel_size": [1, 1], "name": "conv4_block2_1_conv", "activity_regularizer": null, "kernel_constraint": null, "activation": "linear", "use_bias": false}}, {"name": "conv4_block2_1_bn", "class_name": "BatchNormalization", "inbound_nodes": [[["conv4_block2_1_conv", 0, 0, {}]]], "config": {"scale": true, "trainable": true, "beta_constraint": null, "beta_initializer": {"config": {}, "class_name": "Zeros"}, "epsilon": 1.001e-05, "gamma_initializer": {"config": {}, "class_name": "Ones"}, "gamma_constraint": null, "axis": 3, "gamma_regularizer": null, "center": true, "moving_variance_initializer": {"config": {}, "class_name": "Ones"}, "moving_mean_initializer": {"config": {}, "class_name": "Zeros"}, "momentum": 0.99, "name": "conv4_block2_1_bn", "beta_regularizer": null}}, {"name": "conv4_block2_1_relu", "class_name": "Activation", "inbound_nodes": [[["conv4_block2_1_bn", 0, 0, {}]]], "config": {"name": "conv4_block2_1_relu", "trainable": true, "activation": "relu"}}, {"name": "conv4_block2_2_pad", "class_name": "ZeroPadding2D", "inbound_nodes": [[["conv4_block2_1_relu", 0, 0, {}]]], "config": {"padding": [[1, 1], [1, 1]], "name": "conv4_block2_2_pad", "trainable": true, "data_format": "channels_last"}}, {"name": "conv4_block2_2_conv", "class_name": "Conv2D", "inbound_nodes": [[["conv4_block2_2_pad", 0, 0, {}]]], "config": {"strides": [1, 1], "trainable": true, "data_format": "channels_last", "bias_initializer": {"config": {}, "class_name": "Zeros"}, "bias_regularizer": null, "kernel_initializer": {"config": {"seed": null, "scale": 1.0, "distribution": "uniform", "mode": "fan_avg"}, "class_name": "VarianceScaling"}, "kernel_regularizer": null, "bias_constraint": null, "filters": 256, "padding": "valid", "dilation_rate": [1, 1], "kernel_size": [3, 3], "name": "conv4_block2_2_conv", "activity_regularizer": null, "kernel_constraint": null, "activation": "linear", "use_bias": false}}, {"name": "conv4_block2_2_bn", "class_name": "BatchNormalization", "inbound_nodes": [[["conv4_block2_2_conv", 0, 0, {}]]], "config": {"scale": true, "trainable": true, "beta_constraint": null, "beta_initializer": {"config": {}, "class_name": "Zeros"}, "epsilon": 1.001e-05, "gamma_initializer": {"config": {}, "class_name": "Ones"}, "gamma_constraint": null, "axis": 3, "gamma_regularizer": null, "center": true, "moving_variance_initializer": {"config": {}, "class_name": "Ones"}, "moving_mean_initializer": {"config": {}, "class_name": "Zeros"}, "momentum": 0.99, "name": "conv4_block2_2_bn", "beta_regularizer": null}}, {"name": "conv4_block2_2_relu", "class_name": "Activation", "inbound_nodes": [[["conv4_block2_2_bn", 0, 0, {}]]], "config": {"name": "conv4_block2_2_relu", "trainable": true, "activation": "relu"}}, {"name": "conv4_block2_3_conv", "class_name": "Conv2D", "inbound_nodes": [[["conv4_block2_2_relu", 0, 0, {}]]], "config": {"strides": [1, 1], "trainable": true, "data_format": "channels_last", "bias_initializer": {"config": {}, "class_name": "Zeros"}, "bias_regularizer": null, "kernel_initializer": {"config": {"seed": null, "scale": 1.0, "distribution": "uniform", "mode": "fan_avg"}, "class_name": "VarianceScaling"}, "kernel_regularizer": null, "bias_constraint": null, "filters": 1024, "padding": "valid", "dilation_rate": [1, 1], "kernel_size": [1, 1], "name": "conv4_block2_3_conv", "activity_regularizer": null, "kernel_constraint": null, "activation": "linear", "use_bias": true}}, {"name": "conv4_block2_out", "class_name": "Add", "inbound_nodes": [[["conv4_block1_out", 0, 0, {}], ["conv4_block2_3_conv", 0, 0, {}]]], "config": {"name": "conv4_block2_out", "trainable": true}}, {"name": "conv4_block3_preact_bn", "class_name": "BatchNormalization", "inbound_nodes": [[["conv4_block2_out", 0, 0, {}]]], "config": {"scale": true, "trainable": true, "beta_constraint": null, "beta_initializer": {"config": {}, "class_name": "Zeros"}, "epsilon": 1.001e-05, "gamma_initializer": {"config": {}, "class_name": "Ones"}, "gamma_constraint": null, "axis": 3, "gamma_regularizer": null, "center": true, "moving_variance_initializer": {"config": {}, "class_name": "Ones"}, "moving_mean_initializer": {"config": {}, "class_name": "Zeros"}, "momentum": 0.99, "name": "conv4_block3_preact_bn", "beta_regularizer": null}}, {"name": "conv4_block3_preact_relu", "class_name": "Activation", "inbound_nodes": [[["conv4_block3_preact_bn", 0, 0, {}]]], "config": {"name": "conv4_block3_preact_relu", "trainable": true, "activation": "relu"}}, {"name": "conv4_block3_1_conv", "class_name": "Conv2D", "inbound_nodes": [[["conv4_block3_preact_relu", 0, 0, {}]]], "config": {"strides": [1, 1], "trainable": true, "data_format": "channels_last", "bias_initializer": {"config": {}, "class_name": "Zeros"}, "bias_regularizer": null, "kernel_initializer": {"config": {"seed": null, "scale": 1.0, "distribution": "uniform", "mode": "fan_avg"}, "class_name": "VarianceScaling"}, "kernel_regularizer": null, "bias_constraint": null, "filters": 256, "padding": "valid", "dilation_rate": [1, 1], "kernel_size": [1, 1], "name": "conv4_block3_1_conv", "activity_regularizer": null, "kernel_constraint": null, "activation": "linear", "use_bias": false}}, {"name": "conv4_block3_1_bn", "class_name": "BatchNormalization", "inbound_nodes": [[["conv4_block3_1_conv", 0, 0, {}]]], "config": {"scale": true, "trainable": true, "beta_constraint": null, "beta_initializer": {"config": {}, "class_name": "Zeros"}, "epsilon": 1.001e-05, "gamma_initializer": {"config": {}, "class_name": "Ones"}, "gamma_constraint": null, "axis": 3, "gamma_regularizer": null, "center": true, "moving_variance_initializer": {"config": {}, "class_name": "Ones"}, "moving_mean_initializer": {"config": {}, "class_name": "Zeros"}, "momentum": 0.99, "name": "conv4_block3_1_bn", "beta_regularizer": null}}, {"name": "conv4_block3_1_relu", "class_name": "Activation", "inbound_nodes": [[["conv4_block3_1_bn", 0, 0, {}]]], "config": {"name": "conv4_block3_1_relu", "trainable": true, "activation": "relu"}}, {"name": "conv4_block3_2_pad", "class_name": "ZeroPadding2D", "inbound_nodes": [[["conv4_block3_1_relu", 0, 0, {}]]], "config": {"padding": [[1, 1], [1, 1]], "name": "conv4_block3_2_pad", "trainable": true, "data_format": "channels_last"}}, {"name": "conv4_block3_2_conv", "class_name": "Conv2D", "inbound_nodes": [[["conv4_block3_2_pad", 0, 0, {}]]], "config": {"strides": [1, 1], "trainable": true, "data_format": "channels_last", "bias_initializer": {"config": {}, "class_name": "Zeros"}, "bias_regularizer": null, "kernel_initializer": {"config": {"seed": null, "scale": 1.0, "distribution": "uniform", "mode": "fan_avg"}, "class_name": "VarianceScaling"}, "kernel_regularizer": null, "bias_constraint": null, "filters": 256, "padding": "valid", "dilation_rate": [1, 1], "kernel_size": [3, 3], "name": "conv4_block3_2_conv", "activity_regularizer": null, "kernel_constraint": null, "activation": "linear", "use_bias": false}}, {"name": "conv4_block3_2_bn", "class_name": "BatchNormalization", "inbound_nodes": [[["conv4_block3_2_conv", 0, 0, {}]]], "config": {"scale": true, "trainable": true, "beta_constraint": null, "beta_initializer": {"config": {}, "class_name": "Zeros"}, "epsilon": 1.001e-05, "gamma_initializer": {"config": {}, "class_name": "Ones"}, "gamma_constraint": null, "axis": 3, "gamma_regularizer": null, "center": true, "moving_variance_initializer": {"config": {}, "class_name": "Ones"}, "moving_mean_initializer": {"config": {}, "class_name": "Zeros"}, "momentum": 0.99, "name": "conv4_block3_2_bn", "beta_regularizer": null}}, {"name": "conv4_block3_2_relu", "class_name": "Activation", "inbound_nodes": [[["conv4_block3_2_bn", 0, 0, {}]]], "config": {"name": "conv4_block3_2_relu", "trainable": true, "activation": "relu"}}, {"name": "conv4_block3_3_conv", "class_name": "Conv2D", "inbound_nodes": [[["conv4_block3_2_relu", 0, 0, {}]]], "config": {"strides": [1, 1], "trainable": true, "data_format": "channels_last", "bias_initializer": {"config": {}, "class_name": "Zeros"}, "bias_regularizer": null, "kernel_initializer": {"config": {"seed": null, "scale": 1.0, "distribution": "uniform", "mode": "fan_avg"}, "class_name": "VarianceScaling"}, "kernel_regularizer": null, "bias_constraint": null, "filters": 1024, "padding": "valid", "dilation_rate": [1, 1], "kernel_size": [1, 1], "name": "conv4_block3_3_conv", "activity_regularizer": null, "kernel_constraint": null, "activation": "linear", "use_bias": true}}, {"name": "conv4_block3_out", "class_name": "Add", "inbound_nodes": [[["conv4_block2_out", 0, 0, {}], ["conv4_block3_3_conv", 0, 0, {}]]], "config": {"name": "conv4_block3_out", "trainable": true}}, {"name": "conv4_block4_preact_bn", "class_name": "BatchNormalization", "inbound_nodes": [[["conv4_block3_out", 0, 0, {}]]], "config": {"scale": true, "trainable": true, "beta_constraint": null, "beta_initializer": {"config": {}, "class_name": "Zeros"}, "epsilon": 1.001e-05, "gamma_initializer": {"config": {}, "class_name": "Ones"}, "gamma_constraint": null, "axis": 3, "gamma_regularizer": null, "center": true, "moving_variance_initializer": {"config": {}, "class_name": "Ones"}, "moving_mean_initializer": {"config": {}, "class_name": "Zeros"}, "momentum": 0.99, "name": "conv4_block4_preact_bn", "beta_regularizer": null}}, {"name": "conv4_block4_preact_relu", "class_name": "Activation", "inbound_nodes": [[["conv4_block4_preact_bn", 0, 0, {}]]], "config": {"name": "conv4_block4_preact_relu", "trainable": true, "activation": "relu"}}, {"name": "conv4_block4_1_conv", "class_name": "Conv2D", "inbound_nodes": [[["conv4_block4_preact_relu", 0, 0, {}]]], "config": {"strides": [1, 1], "trainable": true, "data_format": "channels_last", "bias_initializer": {"config": {}, "class_name": "Zeros"}, "bias_regularizer": null, "kernel_initializer": {"config": {"seed": null, "scale": 1.0, "distribution": "uniform", "mode": "fan_avg"}, "class_name": "VarianceScaling"}, "kernel_regularizer": null, "bias_constraint": null, "filters": 256, "padding": "valid", "dilation_rate": [1, 1], "kernel_size": [1, 1], "name": "conv4_block4_1_conv", "activity_regularizer": null, "kernel_constraint": null, "activation": "linear", "use_bias": false}}, {"name": "conv4_block4_1_bn", "class_name": "BatchNormalization", "inbound_nodes": [[["conv4_block4_1_conv", 0, 0, {}]]], "config": {"scale": true, "trainable": true, "beta_constraint": null, "beta_initializer": {"config": {}, "class_name": "Zeros"}, "epsilon": 1.001e-05, "gamma_initializer": {"config": {}, "class_name": "Ones"}, "gamma_constraint": null, "axis": 3, "gamma_regularizer": null, "center": true, "moving_variance_initializer": {"config": {}, "class_name": "Ones"}, "moving_mean_initializer": {"config": {}, "class_name": "Zeros"}, "momentum": 0.99, "name": "conv4_block4_1_bn", "beta_regularizer": null}}, {"name": "conv4_block4_1_relu", "class_name": "Activation", "inbound_nodes": [[["conv4_block4_1_bn", 0, 0, {}]]], "config": {"name": "conv4_block4_1_relu", "trainable": true, "activation": "relu"}}, {"name": "conv4_block4_2_pad", "class_name": "ZeroPadding2D", "inbound_nodes": [[["conv4_block4_1_relu", 0, 0, {}]]], "config": {"padding": [[1, 1], [1, 1]], "name": "conv4_block4_2_pad", "trainable": true, "data_format": "channels_last"}}, {"name": "conv4_block4_2_conv", "class_name": "Conv2D", "inbound_nodes": [[["conv4_block4_2_pad", 0, 0, {}]]], "config": {"strides": [1, 1], "trainable": true, "data_format": "channels_last", "bias_initializer": {"config": {}, "class_name": "Zeros"}, "bias_regularizer": null, "kernel_initializer": {"config": {"seed": null, "scale": 1.0, "distribution": "uniform", "mode": "fan_avg"}, "class_name": "VarianceScaling"}, "kernel_regularizer": null, "bias_constraint": null, "filters": 256, "padding": "valid", "dilation_rate": [1, 1], "kernel_size": [3, 3], "name": "conv4_block4_2_conv", "activity_regularizer": null, "kernel_constraint": null, "activation": "linear", "use_bias": false}}, {"name": "conv4_block4_2_bn", "class_name": "BatchNormalization", "inbound_nodes": [[["conv4_block4_2_conv", 0, 0, {}]]], "config": {"scale": true, "trainable": true, "beta_constraint": null, "beta_initializer": {"config": {}, "class_name": "Zeros"}, "epsilon": 1.001e-05, "gamma_initializer": {"config": {}, "class_name": "Ones"}, "gamma_constraint": null, "axis": 3, "gamma_regularizer": null, "center": true, "moving_variance_initializer": {"config": {}, "class_name": "Ones"}, "moving_mean_initializer": {"config": {}, "class_name": "Zeros"}, "momentum": 0.99, "name": "conv4_block4_2_bn", "beta_regularizer": null}}, {"name": "conv4_block4_2_relu", "class_name": "Activation", "inbound_nodes": [[["conv4_block4_2_bn", 0, 0, {}]]], "config": {"name": "conv4_block4_2_relu", "trainable": true, "activation": "relu"}}, {"name": "conv4_block4_3_conv", "class_name": "Conv2D", "inbound_nodes": [[["conv4_block4_2_relu", 0, 0, {}]]], "config": {"strides": [1, 1], "trainable": true, "data_format": "channels_last", "bias_initializer": {"config": {}, "class_name": "Zeros"}, "bias_regularizer": null, "kernel_initializer": {"config": {"seed": null, "scale": 1.0, "distribution": "uniform", "mode": "fan_avg"}, "class_name": "VarianceScaling"}, "kernel_regularizer": null, "bias_constraint": null, "filters": 1024, "padding": "valid", "dilation_rate": [1, 1], "kernel_size": [1, 1], "name": "conv4_block4_3_conv", "activity_regularizer": null, "kernel_constraint": null, "activation": "linear", "use_bias": true}}, {"name": "conv4_block4_out", "class_name": "Add", "inbound_nodes": [[["conv4_block3_out", 0, 0, {}], ["conv4_block4_3_conv", 0, 0, {}]]], "config": {"name": "conv4_block4_out", "trainable": true}}, {"name": "conv4_block5_preact_bn", "class_name": "BatchNormalization", "inbound_nodes": [[["conv4_block4_out", 0, 0, {}]]], "config": {"scale": true, "trainable": true, "beta_constraint": null, "beta_initializer": {"config": {}, "class_name": "Zeros"}, "epsilon": 1.001e-05, "gamma_initializer": {"config": {}, "class_name": "Ones"}, "gamma_constraint": null, "axis": 3, "gamma_regularizer": null, "center": true, "moving_variance_initializer": {"config": {}, "class_name": "Ones"}, "moving_mean_initializer": {"config": {}, "class_name": "Zeros"}, "momentum": 0.99, "name": "conv4_block5_preact_bn", "beta_regularizer": null}}, {"name": "conv4_block5_preact_relu", "class_name": "Activation", "inbound_nodes": [[["conv4_block5_preact_bn", 0, 0, {}]]], "config": {"name": "conv4_block5_preact_relu", "trainable": true, "activation": "relu"}}, {"name": "conv4_block5_1_conv", "class_name": "Conv2D", "inbound_nodes": [[["conv4_block5_preact_relu", 0, 0, {}]]], "config": {"strides": [1, 1], "trainable": true, "data_format": "channels_last", "bias_initializer": {"config": {}, "class_name": "Zeros"}, "bias_regularizer": null, "kernel_initializer": {"config": {"seed": null, "scale": 1.0, "distribution": "uniform", "mode": "fan_avg"}, "class_name": "VarianceScaling"}, "kernel_regularizer": null, "bias_constraint": null, "filters": 256, "padding": "valid", "dilation_rate": [1, 1], "kernel_size": [1, 1], "name": "conv4_block5_1_conv", "activity_regularizer": null, "kernel_constraint": null, "activation": "linear", "use_bias": false}}, {"name": "conv4_block5_1_bn", "class_name": "BatchNormalization", "inbound_nodes": [[["conv4_block5_1_conv", 0, 0, {}]]], "config": {"scale": true, "trainable": true, "beta_constraint": null, "beta_initializer": {"config": {}, "class_name": "Zeros"}, "epsilon": 1.001e-05, "gamma_initializer": {"config": {}, "class_name": "Ones"}, "gamma_constraint": null, "axis": 3, "gamma_regularizer": null, "center": true, "moving_variance_initializer": {"config": {}, "class_name": "Ones"}, "moving_mean_initializer": {"config": {}, "class_name": "Zeros"}, "momentum": 0.99, "name": "conv4_block5_1_bn", "beta_regularizer": null}}, {"name": "conv4_block5_1_relu", "class_name": "Activation", "inbound_nodes": [[["conv4_block5_1_bn", 0, 0, {}]]], "config": {"name": "conv4_block5_1_relu", "trainable": true, "activation": "relu"}}, {"name": "conv4_block5_2_pad", "class_name": "ZeroPadding2D", "inbound_nodes": [[["conv4_block5_1_relu", 0, 0, {}]]], "config": {"padding": [[1, 1], [1, 1]], "name": "conv4_block5_2_pad", "trainable": true, "data_format": "channels_last"}}, {"name": "conv4_block5_2_conv", "class_name": "Conv2D", "inbound_nodes": [[["conv4_block5_2_pad", 0, 0, {}]]], "config": {"strides": [1, 1], "trainable": true, "data_format": "channels_last", "bias_initializer": {"config": {}, "class_name": "Zeros"}, "bias_regularizer": null, "kernel_initializer": {"config": {"seed": null, "scale": 1.0, "distribution": "uniform", "mode": "fan_avg"}, "class_name": "VarianceScaling"}, "kernel_regularizer": null, "bias_constraint": null, "filters": 256, "padding": "valid", "dilation_rate": [1, 1], "kernel_size": [3, 3], "name": "conv4_block5_2_conv", "activity_regularizer": null, "kernel_constraint": null, "activation": "linear", "use_bias": false}}, {"name": "conv4_block5_2_bn", "class_name": "BatchNormalization", "inbound_nodes": [[["conv4_block5_2_conv", 0, 0, {}]]], "config": {"scale": true, "trainable": true, "beta_constraint": null, "beta_initializer": {"config": {}, "class_name": "Zeros"}, "epsilon": 1.001e-05, "gamma_initializer": {"config": {}, "class_name": "Ones"}, "gamma_constraint": null, "axis": 3, "gamma_regularizer": null, "center": true, "moving_variance_initializer": {"config": {}, "class_name": "Ones"}, "moving_mean_initializer": {"config": {}, "class_name": "Zeros"}, "momentum": 0.99, "name": "conv4_block5_2_bn", "beta_regularizer": null}}, {"name": "conv4_block5_2_relu", "class_name": "Activation", "inbound_nodes": [[["conv4_block5_2_bn", 0, 0, {}]]], "config": {"name": "conv4_block5_2_relu", "trainable": true, "activation": "relu"}}, {"name": "conv4_block5_3_conv", "class_name": "Conv2D", "inbound_nodes": [[["conv4_block5_2_relu", 0, 0, {}]]], "config": {"strides": [1, 1], "trainable": true, "data_format": "channels_last", "bias_initializer": {"config": {}, "class_name": "Zeros"}, "bias_regularizer": null, "kernel_initializer": {"config": {"seed": null, "scale": 1.0, "distribution": "uniform", "mode": "fan_avg"}, "class_name": "VarianceScaling"}, "kernel_regularizer": null, "bias_constraint": null, "filters": 1024, "padding": "valid", "dilation_rate": [1, 1], "kernel_size": [1, 1], "name": "conv4_block5_3_conv", "activity_regularizer": null, "kernel_constraint": null, "activation": "linear", "use_bias": true}}, {"name": "conv4_block5_out", "class_name": "Add", "inbound_nodes": [[["conv4_block4_out", 0, 0, {}], ["conv4_block5_3_conv", 0, 0, {}]]], "config": {"name": "conv4_block5_out", "trainable": true}}, {"name": "conv4_block6_preact_bn", "class_name": "BatchNormalization", "inbound_nodes": [[["conv4_block5_out", 0, 0, {}]]], "config": {"scale": true, "trainable": true, "beta_constraint": null, "beta_initializer": {"config": {}, "class_name": "Zeros"}, "epsilon": 1.001e-05, "gamma_initializer": {"config": {}, "class_name": "Ones"}, "gamma_constraint": null, "axis": 3, "gamma_regularizer": null, "center": true, "moving_variance_initializer": {"config": {}, "class_name": "Ones"}, "moving_mean_initializer": {"config": {}, "class_name": "Zeros"}, "momentum": 0.99, "name": "conv4_block6_preact_bn", "beta_regularizer": null}}, {"name": "conv4_block6_preact_relu", "class_name": "Activation", "inbound_nodes": [[["conv4_block6_preact_bn", 0, 0, {}]]], "config": {"name": "conv4_block6_preact_relu", "trainable": true, "activation": "relu"}}, {"name": "conv4_block6_1_conv", "class_name": "Conv2D", "inbound_nodes": [[["conv4_block6_preact_relu", 0, 0, {}]]], "config": {"strides": [1, 1], "trainable": true, "data_format": "channels_last", "bias_initializer": {"config": {}, "class_name": "Zeros"}, "bias_regularizer": null, "kernel_initializer": {"config": {"seed": null, "scale": 1.0, "distribution": "uniform", "mode": "fan_avg"}, "class_name": "VarianceScaling"}, "kernel_regularizer": null, "bias_constraint": null, "filters": 256, "padding": "valid", "dilation_rate": [1, 1], "kernel_size": [1, 1], "name": "conv4_block6_1_conv", "activity_regularizer": null, "kernel_constraint": null, "activation": "linear", "use_bias": false}}, {"name": "conv4_block6_1_bn", "class_name": "BatchNormalization", "inbound_nodes": [[["conv4_block6_1_conv", 0, 0, {}]]], "config": {"scale": true, "trainable": true, "beta_constraint": null, "beta_initializer": {"config": {}, "class_name": "Zeros"}, "epsilon": 1.001e-05, "gamma_initializer": {"config": {}, "class_name": "Ones"}, "gamma_constraint": null, "axis": 3, "gamma_regularizer": null, "center": true, "moving_variance_initializer": {"config": {}, "class_name": "Ones"}, "moving_mean_initializer": {"config": {}, "class_name": "Zeros"}, "momentum": 0.99, "name": "conv4_block6_1_bn", "beta_regularizer": null}}, {"name": "conv4_block6_1_relu", "class_name": "Activation", "inbound_nodes": [[["conv4_block6_1_bn", 0, 0, {}]]], "config": {"name": "conv4_block6_1_relu", "trainable": true, "activation": "relu"}}, {"name": "conv4_block6_2_pad", "class_name": "ZeroPadding2D", "inbound_nodes": [[["conv4_block6_1_relu", 0, 0, {}]]], "config": {"padding": [[1, 1], [1, 1]], "name": "conv4_block6_2_pad", "trainable": true, "data_format": "channels_last"}}, {"name": "conv4_block6_2_conv", "class_name": "Conv2D", "inbound_nodes": [[["conv4_block6_2_pad", 0, 0, {}]]], "config": {"strides": [1, 1], "trainable": true, "data_format": "channels_last", "bias_initializer": {"config": {}, "class_name": "Zeros"}, "bias_regularizer": null, "kernel_initializer": {"config": {"seed": null, "scale": 1.0, "distribution": "uniform", "mode": "fan_avg"}, "class_name": "VarianceScaling"}, "kernel_regularizer": null, "bias_constraint": null, "filters": 256, "padding": "valid", "dilation_rate": [1, 1], "kernel_size": [3, 3], "name": "conv4_block6_2_conv", "activity_regularizer": null, "kernel_constraint": null, "activation": "linear", "use_bias": false}}, {"name": "conv4_block6_2_bn", "class_name": "BatchNormalization", "inbound_nodes": [[["conv4_block6_2_conv", 0, 0, {}]]], "config": {"scale": true, "trainable": true, "beta_constraint": null, "beta_initializer": {"config": {}, "class_name": "Zeros"}, "epsilon": 1.001e-05, "gamma_initializer": {"config": {}, "class_name": "Ones"}, "gamma_constraint": null, "axis": 3, "gamma_regularizer": null, "center": true, "moving_variance_initializer": {"config": {}, "class_name": "Ones"}, "moving_mean_initializer": {"config": {}, "class_name": "Zeros"}, "momentum": 0.99, "name": "conv4_block6_2_bn", "beta_regularizer": null}}, {"name": "conv4_block6_2_relu", "class_name": "Activation", "inbound_nodes": [[["conv4_block6_2_bn", 0, 0, {}]]], "config": {"name": "conv4_block6_2_relu", "trainable": true, "activation": "relu"}}, {"name": "conv4_block6_3_conv", "class_name": "Conv2D", "inbound_nodes": [[["conv4_block6_2_relu", 0, 0, {}]]], "config": {"strides": [1, 1], "trainable": true, "data_format": "channels_last", "bias_initializer": {"config": {}, "class_name": "Zeros"}, "bias_regularizer": null, "kernel_initializer": {"config": {"seed": null, "scale": 1.0, "distribution": "uniform", "mode": "fan_avg"}, "class_name": "VarianceScaling"}, "kernel_regularizer": null, "bias_constraint": null, "filters": 1024, "padding": "valid", "dilation_rate": [1, 1], "kernel_size": [1, 1], "name": "conv4_block6_3_conv", "activity_regularizer": null, "kernel_constraint": null, "activation": "linear", "use_bias": true}}, {"name": "conv4_block6_out", "class_name": "Add", "inbound_nodes": [[["conv4_block5_out", 0, 0, {}], ["conv4_block6_3_conv", 0, 0, {}]]], "config": {"name": "conv4_block6_out", "trainable": true}}, {"name": "conv4_block7_preact_bn", "class_name": "BatchNormalization", "inbound_nodes": [[["conv4_block6_out", 0, 0, {}]]], "config": {"scale": true, "trainable": true, "beta_constraint": null, "beta_initializer": {"config": {}, "class_name": "Zeros"}, "epsilon": 1.001e-05, "gamma_initializer": {"config": {}, "class_name": "Ones"}, "gamma_constraint": null, "axis": 3, "gamma_regularizer": null, "center": true, "moving_variance_initializer": {"config": {}, "class_name": "Ones"}, "moving_mean_initializer": {"config": {}, "class_name": "Zeros"}, "momentum": 0.99, "name": "conv4_block7_preact_bn", "beta_regularizer": null}}, {"name": "conv4_block7_preact_relu", "class_name": "Activation", "inbound_nodes": [[["conv4_block7_preact_bn", 0, 0, {}]]], "config": {"name": "conv4_block7_preact_relu", "trainable": true, "activation": "relu"}}, {"name": "conv4_block7_1_conv", "class_name": "Conv2D", "inbound_nodes": [[["conv4_block7_preact_relu", 0, 0, {}]]], "config": {"strides": [1, 1], "trainable": true, "data_format": "channels_last", "bias_initializer": {"config": {}, "class_name": "Zeros"}, "bias_regularizer": null, "kernel_initializer": {"config": {"seed": null, "scale": 1.0, "distribution": "uniform", "mode": "fan_avg"}, "class_name": "VarianceScaling"}, "kernel_regularizer": null, "bias_constraint": null, "filters": 256, "padding": "valid", "dilation_rate": [1, 1], "kernel_size": [1, 1], "name": "conv4_block7_1_conv", "activity_regularizer": null, "kernel_constraint": null, "activation": "linear", "use_bias": false}}, {"name": "conv4_block7_1_bn", "class_name": "BatchNormalization", "inbound_nodes": [[["conv4_block7_1_conv", 0, 0, {}]]], "config": {"scale": true, "trainable": true, "beta_constraint": null, "beta_initializer": {"config": {}, "class_name": "Zeros"}, "epsilon": 1.001e-05, "gamma_initializer": {"config": {}, "class_name": "Ones"}, "gamma_constraint": null, "axis": 3, "gamma_regularizer": null, "center": true, "moving_variance_initializer": {"config": {}, "class_name": "Ones"}, "moving_mean_initializer": {"config": {}, "class_name": "Zeros"}, "momentum": 0.99, "name": "conv4_block7_1_bn", "beta_regularizer": null}}, {"name": "conv4_block7_1_relu", "class_name": "Activation", "inbound_nodes": [[["conv4_block7_1_bn", 0, 0, {}]]], "config": {"name": "conv4_block7_1_relu", "trainable": true, "activation": "relu"}}, {"name": "conv4_block7_2_pad", "class_name": "ZeroPadding2D", "inbound_nodes": [[["conv4_block7_1_relu", 0, 0, {}]]], "config": {"padding": [[1, 1], [1, 1]], "name": "conv4_block7_2_pad", "trainable": true, "data_format": "channels_last"}}, {"name": "conv4_block7_2_conv", "class_name": "Conv2D", "inbound_nodes": [[["conv4_block7_2_pad", 0, 0, {}]]], "config": {"strides": [1, 1], "trainable": true, "data_format": "channels_last", "bias_initializer": {"config": {}, "class_name": "Zeros"}, "bias_regularizer": null, "kernel_initializer": {"config": {"seed": null, "scale": 1.0, "distribution": "uniform", "mode": "fan_avg"}, "class_name": "VarianceScaling"}, "kernel_regularizer": null, "bias_constraint": null, "filters": 256, "padding": "valid", "dilation_rate": [1, 1], "kernel_size": [3, 3], "name": "conv4_block7_2_conv", "activity_regularizer": null, "kernel_constraint": null, "activation": "linear", "use_bias": false}}, {"name": "conv4_block7_2_bn", "class_name": "BatchNormalization", "inbound_nodes": [[["conv4_block7_2_conv", 0, 0, {}]]], "config": {"scale": true, "trainable": true, "beta_constraint": null, "beta_initializer": {"config": {}, "class_name": "Zeros"}, "epsilon": 1.001e-05, "gamma_initializer": {"config": {}, "class_name": "Ones"}, "gamma_constraint": null, "axis": 3, "gamma_regularizer": null, "center": true, "moving_variance_initializer": {"config": {}, "class_name": "Ones"}, "moving_mean_initializer": {"config": {}, "class_name": "Zeros"}, "momentum": 0.99, "name": "conv4_block7_2_bn", "beta_regularizer": null}}, {"name": "conv4_block7_2_relu", "class_name": "Activation", "inbound_nodes": [[["conv4_block7_2_bn", 0, 0, {}]]], "config": {"name": "conv4_block7_2_relu", "trainable": true, "activation": "relu"}}, {"name": "conv4_block7_3_conv", "class_name": "Conv2D", "inbound_nodes": [[["conv4_block7_2_relu", 0, 0, {}]]], "config": {"strides": [1, 1], "trainable": true, "data_format": "channels_last", "bias_initializer": {"config": {}, "class_name": "Zeros"}, "bias_regularizer": null, "kernel_initializer": {"config": {"seed": null, "scale": 1.0, "distribution": "uniform", "mode": "fan_avg"}, "class_name": "VarianceScaling"}, "kernel_regularizer": null, "bias_constraint": null, "filters": 1024, "padding": "valid", "dilation_rate": [1, 1], "kernel_size": [1, 1], "name": "conv4_block7_3_conv", "activity_regularizer": null, "kernel_constraint": null, "activation": "linear", "use_bias": true}}, {"name": "conv4_block7_out", "class_name": "Add", "inbound_nodes": [[["conv4_block6_out", 0, 0, {}], ["conv4_block7_3_conv", 0, 0, {}]]], "config": {"name": "conv4_block7_out", "trainable": true}}, {"name": "conv4_block8_preact_bn", "class_name": "BatchNormalization", "inbound_nodes": [[["conv4_block7_out", 0, 0, {}]]], "config": {"scale": true, "trainable": true, "beta_constraint": null, "beta_initializer": {"config": {}, "class_name": "Zeros"}, "epsilon": 1.001e-05, "gamma_initializer": {"config": {}, "class_name": "Ones"}, "gamma_constraint": null, "axis": 3, "gamma_regularizer": null, "center": true, "moving_variance_initializer": {"config": {}, "class_name": "Ones"}, "moving_mean_initializer": {"config": {}, "class_name": "Zeros"}, "momentum": 0.99, "name": "conv4_block8_preact_bn", "beta_regularizer": null}}, {"name": "conv4_block8_preact_relu", "class_name": "Activation", "inbound_nodes": [[["conv4_block8_preact_bn", 0, 0, {}]]], "config": {"name": "conv4_block8_preact_relu", "trainable": true, "activation": "relu"}}, {"name": "conv4_block8_1_conv", "class_name": "Conv2D", "inbound_nodes": [[["conv4_block8_preact_relu", 0, 0, {}]]], "config": {"strides": [1, 1], "trainable": true, "data_format": "channels_last", "bias_initializer": {"config": {}, "class_name": "Zeros"}, "bias_regularizer": null, "kernel_initializer": {"config": {"seed": null, "scale": 1.0, "distribution": "uniform", "mode": "fan_avg"}, "class_name": "VarianceScaling"}, "kernel_regularizer": null, "bias_constraint": null, "filters": 256, "padding": "valid", "dilation_rate": [1, 1], "kernel_size": [1, 1], "name": "conv4_block8_1_conv", "activity_regularizer": null, "kernel_constraint": null, "activation": "linear", "use_bias": false}}, {"name": "conv4_block8_1_bn", "class_name": "BatchNormalization", "inbound_nodes": [[["conv4_block8_1_conv", 0, 0, {}]]], "config": {"scale": true, "trainable": true, "beta_constraint": null, "beta_initializer": {"config": {}, "class_name": "Zeros"}, "epsilon": 1.001e-05, "gamma_initializer": {"config": {}, "class_name": "Ones"}, "gamma_constraint": null, "axis": 3, "gamma_regularizer": null, "center": true, "moving_variance_initializer": {"config": {}, "class_name": "Ones"}, "moving_mean_initializer": {"config": {}, "class_name": "Zeros"}, "momentum": 0.99, "name": "conv4_block8_1_bn", "beta_regularizer": null}}, {"name": "conv4_block8_1_relu", "class_name": "Activation", "inbound_nodes": [[["conv4_block8_1_bn", 0, 0, {}]]], "config": {"name": "conv4_block8_1_relu", "trainable": true, "activation": "relu"}}, {"name": "conv4_block8_2_pad", "class_name": "ZeroPadding2D", "inbound_nodes": [[["conv4_block8_1_relu", 0, 0, {}]]], "config": {"padding": [[1, 1], [1, 1]], "name": "conv4_block8_2_pad", "trainable": true, "data_format": "channels_last"}}, {"name": "conv4_block8_2_conv", "class_name": "Conv2D", "inbound_nodes": [[["conv4_block8_2_pad", 0, 0, {}]]], "config": {"strides": [1, 1], "trainable": true, "data_format": "channels_last", "bias_initializer": {"config": {}, "class_name": "Zeros"}, "bias_regularizer": null, "kernel_initializer": {"config": {"seed": null, "scale": 1.0, "distribution": "uniform", "mode": "fan_avg"}, "class_name": "VarianceScaling"}, "kernel_regularizer": null, "bias_constraint": null, "filters": 256, "padding": "valid", "dilation_rate": [1, 1], "kernel_size": [3, 3], "name": "conv4_block8_2_conv", "activity_regularizer": null, "kernel_constraint": null, "activation": "linear", "use_bias": false}}, {"name": "conv4_block8_2_bn", "class_name": "BatchNormalization", "inbound_nodes": [[["conv4_block8_2_conv", 0, 0, {}]]], "config": {"scale": true, "trainable": true, "beta_constraint": null, "beta_initializer": {"config": {}, "class_name": "Zeros"}, "epsilon": 1.001e-05, "gamma_initializer": {"config": {}, "class_name": "Ones"}, "gamma_constraint": null, "axis": 3, "gamma_regularizer": null, "center": true, "moving_variance_initializer": {"config": {}, "class_name": "Ones"}, "moving_mean_initializer": {"config": {}, "class_name": "Zeros"}, "momentum": 0.99, "name": "conv4_block8_2_bn", "beta_regularizer": null}}, {"name": "conv4_block8_2_relu", "class_name": "Activation", "inbound_nodes": [[["conv4_block8_2_bn", 0, 0, {}]]], "config": {"name": "conv4_block8_2_relu", "trainable": true, "activation": "relu"}}, {"name": "conv4_block8_3_conv", "class_name": "Conv2D", "inbound_nodes": [[["conv4_block8_2_relu", 0, 0, {}]]], "config": {"strides": [1, 1], "trainable": true, "data_format": "channels_last", "bias_initializer": {"config": {}, "class_name": "Zeros"}, "bias_regularizer": null, "kernel_initializer": {"config": {"seed": null, "scale": 1.0, "distribution": "uniform", "mode": "fan_avg"}, "class_name": "VarianceScaling"}, "kernel_regularizer": null, "bias_constraint": null, "filters": 1024, "padding": "valid", "dilation_rate": [1, 1], "kernel_size": [1, 1], "name": "conv4_block8_3_conv", "activity_regularizer": null, "kernel_constraint": null, "activation": "linear", "use_bias": true}}, {"name": "conv4_block8_out", "class_name": "Add", "inbound_nodes": [[["conv4_block7_out", 0, 0, {}], ["conv4_block8_3_conv", 0, 0, {}]]], "config": {"name": "conv4_block8_out", "trainable": true}}, {"name": "conv4_block9_preact_bn", "class_name": "BatchNormalization", "inbound_nodes": [[["conv4_block8_out", 0, 0, {}]]], "config": {"scale": true, "trainable": true, "beta_constraint": null, "beta_initializer": {"config": {}, "class_name": "Zeros"}, "epsilon": 1.001e-05, "gamma_initializer": {"config": {}, "class_name": "Ones"}, "gamma_constraint": null, "axis": 3, "gamma_regularizer": null, "center": true, "moving_variance_initializer": {"config": {}, "class_name": "Ones"}, "moving_mean_initializer": {"config": {}, "class_name": "Zeros"}, "momentum": 0.99, "name": "conv4_block9_preact_bn", "beta_regularizer": null}}, {"name": "conv4_block9_preact_relu", "class_name": "Activation", "inbound_nodes": [[["conv4_block9_preact_bn", 0, 0, {}]]], "config": {"name": "conv4_block9_preact_relu", "trainable": true, "activation": "relu"}}, {"name": "conv4_block9_1_conv", "class_name": "Conv2D", "inbound_nodes": [[["conv4_block9_preact_relu", 0, 0, {}]]], "config": {"strides": [1, 1], "trainable": true, "data_format": "channels_last", "bias_initializer": {"config": {}, "class_name": "Zeros"}, "bias_regularizer": null, "kernel_initializer": {"config": {"seed": null, "scale": 1.0, "distribution": "uniform", "mode": "fan_avg"}, "class_name": "VarianceScaling"}, "kernel_regularizer": null, "bias_constraint": null, "filters": 256, "padding": "valid", "dilation_rate": [1, 1], "kernel_size": [1, 1], "name": "conv4_block9_1_conv", "activity_regularizer": null, "kernel_constraint": null, "activation": "linear", "use_bias": false}}, {"name": "conv4_block9_1_bn", "class_name": "BatchNormalization", "inbound_nodes": [[["conv4_block9_1_conv", 0, 0, {}]]], "config": {"scale": true, "trainable": true, "beta_constraint": null, "beta_initializer": {"config": {}, "class_name": "Zeros"}, "epsilon": 1.001e-05, "gamma_initializer": {"config": {}, "class_name": "Ones"}, "gamma_constraint": null, "axis": 3, "gamma_regularizer": null, "center": true, "moving_variance_initializer": {"config": {}, "class_name": "Ones"}, "moving_mean_initializer": {"config": {}, "class_name": "Zeros"}, "momentum": 0.99, "name": "conv4_block9_1_bn", "beta_regularizer": null}}, {"name": "conv4_block9_1_relu", "class_name": "Activation", "inbound_nodes": [[["conv4_block9_1_bn", 0, 0, {}]]], "config": {"name": "conv4_block9_1_relu", "trainable": true, "activation": "relu"}}, {"name": "conv4_block9_2_pad", "class_name": "ZeroPadding2D", "inbound_nodes": [[["conv4_block9_1_relu", 0, 0, {}]]], "config": {"padding": [[1, 1], [1, 1]], "name": "conv4_block9_2_pad", "trainable": true, "data_format": "channels_last"}}, {"name": "conv4_block9_2_conv", "class_name": "Conv2D", "inbound_nodes": [[["conv4_block9_2_pad", 0, 0, {}]]], "config": {"strides": [1, 1], "trainable": true, "data_format": "channels_last", "bias_initializer": {"config": {}, "class_name": "Zeros"}, "bias_regularizer": null, "kernel_initializer": {"config": {"seed": null, "scale": 1.0, "distribution": "uniform", "mode": "fan_avg"}, "class_name": "VarianceScaling"}, "kernel_regularizer": null, "bias_constraint": null, "filters": 256, "padding": "valid", "dilation_rate": [1, 1], "kernel_size": [3, 3], "name": "conv4_block9_2_conv", "activity_regularizer": null, "kernel_constraint": null, "activation": "linear", "use_bias": false}}, {"name": "conv4_block9_2_bn", "class_name": "BatchNormalization", "inbound_nodes": [[["conv4_block9_2_conv", 0, 0, {}]]], "config": {"scale": true, "trainable": true, "beta_constraint": null, "beta_initializer": {"config": {}, "class_name": "Zeros"}, "epsilon": 1.001e-05, "gamma_initializer": {"config": {}, "class_name": "Ones"}, "gamma_constraint": null, "axis": 3, "gamma_regularizer": null, "center": true, "moving_variance_initializer": {"config": {}, "class_name": "Ones"}, "moving_mean_initializer": {"config": {}, "class_name": "Zeros"}, "momentum": 0.99, "name": "conv4_block9_2_bn", "beta_regularizer": null}}, {"name": "conv4_block9_2_relu", "class_name": "Activation", "inbound_nodes": [[["conv4_block9_2_bn", 0, 0, {}]]], "config": {"name": "conv4_block9_2_relu", "trainable": true, "activation": "relu"}}, {"name": "conv4_block9_3_conv", "class_name": "Conv2D", "inbound_nodes": [[["conv4_block9_2_relu", 0, 0, {}]]], "config": {"strides": [1, 1], "trainable": true, "data_format": "channels_last", "bias_initializer": {"config": {}, "class_name": "Zeros"}, "bias_regularizer": null, "kernel_initializer": {"config": {"seed": null, "scale": 1.0, "distribution": "uniform", "mode": "fan_avg"}, "class_name": "VarianceScaling"}, "kernel_regularizer": null, "bias_constraint": null, "filters": 1024, "padding": "valid", "dilation_rate": [1, 1], "kernel_size": [1, 1], "name": "conv4_block9_3_conv", "activity_regularizer": null, "kernel_constraint": null, "activation": "linear", "use_bias": true}}, {"name": "conv4_block9_out", "class_name": "Add", "inbound_nodes": [[["conv4_block8_out", 0, 0, {}], ["conv4_block9_3_conv", 0, 0, {}]]], "config": {"name": "conv4_block9_out", "trainable": true}}, {"name": "conv4_block10_preact_bn", "class_name": "BatchNormalization", "inbound_nodes": [[["conv4_block9_out", 0, 0, {}]]], "config": {"scale": true, "trainable": true, "beta_constraint": null, "beta_initializer": {"config": {}, "class_name": "Zeros"}, "epsilon": 1.001e-05, "gamma_initializer": {"config": {}, "class_name": "Ones"}, "gamma_constraint": null, "axis": 3, "gamma_regularizer": null, "center": true, "moving_variance_initializer": {"config": {}, "class_name": "Ones"}, "moving_mean_initializer": {"config": {}, "class_name": "Zeros"}, "momentum": 0.99, "name": "conv4_block10_preact_bn", "beta_regularizer": null}}, {"name": "conv4_block10_preact_relu", "class_name": "Activation", "inbound_nodes": [[["conv4_block10_preact_bn", 0, 0, {}]]], "config": {"name": "conv4_block10_preact_relu", "trainable": true, "activation": "relu"}}, {"name": "conv4_block10_1_conv", "class_name": "Conv2D", "inbound_nodes": [[["conv4_block10_preact_relu", 0, 0, {}]]], "config": {"strides": [1, 1], "trainable": true, "data_format": "channels_last", "bias_initializer": {"config": {}, "class_name": "Zeros"}, "bias_regularizer": null, "kernel_initializer": {"config": {"seed": null, "scale": 1.0, "distribution": "uniform", "mode": "fan_avg"}, "class_name": "VarianceScaling"}, "kernel_regularizer": null, "bias_constraint": null, "filters": 256, "padding": "valid", "dilation_rate": [1, 1], "kernel_size": [1, 1], "name": "conv4_block10_1_conv", "activity_regularizer": null, "kernel_constraint": null, "activation": "linear", "use_bias": false}}, {"name": "conv4_block10_1_bn", "class_name": "BatchNormalization", "inbound_nodes": [[["conv4_block10_1_conv", 0, 0, {}]]], "config": {"scale": true, "trainable": true, "beta_constraint": null, "beta_initializer": {"config": {}, "class_name": "Zeros"}, "epsilon": 1.001e-05, "gamma_initializer": {"config": {}, "class_name": "Ones"}, "gamma_constraint": null, "axis": 3, "gamma_regularizer": null, "center": true, "moving_variance_initializer": {"config": {}, "class_name": "Ones"}, "moving_mean_initializer": {"config": {}, "class_name": "Zeros"}, "momentum": 0.99, "name": "conv4_block10_1_bn", "beta_regularizer": null}}, {"name": "conv4_block10_1_relu", "class_name": "Activation", "inbound_nodes": [[["conv4_block10_1_bn", 0, 0, {}]]], "config": {"name": "conv4_block10_1_relu", "trainable": true, "activation": "relu"}}, {"name": "conv4_block10_2_pad", "class_name": "ZeroPadding2D", "inbound_nodes": [[["conv4_block10_1_relu", 0, 0, {}]]], "config": {"padding": [[1, 1], [1, 1]], "name": "conv4_block10_2_pad", "trainable": true, "data_format": "channels_last"}}, {"name": "conv4_block10_2_conv", "class_name": "Conv2D", "inbound_nodes": [[["conv4_block10_2_pad", 0, 0, {}]]], "config": {"strides": [1, 1], "trainable": true, "data_format": "channels_last", "bias_initializer": {"config": {}, "class_name": "Zeros"}, "bias_regularizer": null, "kernel_initializer": {"config": {"seed": null, "scale": 1.0, "distribution": "uniform", "mode": "fan_avg"}, "class_name": "VarianceScaling"}, "kernel_regularizer": null, "bias_constraint": null, "filters": 256, "padding": "valid", "dilation_rate": [1, 1], "kernel_size": [3, 3], "name": "conv4_block10_2_conv", "activity_regularizer": null, "kernel_constraint": null, "activation": "linear", "use_bias": false}}, {"name": "conv4_block10_2_bn", "class_name": "BatchNormalization", "inbound_nodes": [[["conv4_block10_2_conv", 0, 0, {}]]], "config": {"scale": true, "trainable": true, "beta_constraint": null, "beta_initializer": {"config": {}, "class_name": "Zeros"}, "epsilon": 1.001e-05, "gamma_initializer": {"config": {}, "class_name": "Ones"}, "gamma_constraint": null, "axis": 3, "gamma_regularizer": null, "center": true, "moving_variance_initializer": {"config": {}, "class_name": "Ones"}, "moving_mean_initializer": {"config": {}, "class_name": "Zeros"}, "momentum": 0.99, "name": "conv4_block10_2_bn", "beta_regularizer": null}}, {"name": "conv4_block10_2_relu", "class_name": "Activation", "inbound_nodes": [[["conv4_block10_2_bn", 0, 0, {}]]], "config": {"name": "conv4_block10_2_relu", "trainable": true, "activation": "relu"}}, {"name": "conv4_block10_3_conv", "class_name": "Conv2D", "inbound_nodes": [[["conv4_block10_2_relu", 0, 0, {}]]], "config": {"strides": [1, 1], "trainable": true, "data_format": "channels_last", "bias_initializer": {"config": {}, "class_name": "Zeros"}, "bias_regularizer": null, "kernel_initializer": {"config": {"seed": null, "scale": 1.0, "distribution": "uniform", "mode": "fan_avg"}, "class_name": "VarianceScaling"}, "kernel_regularizer": null, "bias_constraint": null, "filters": 1024, "padding": "valid", "dilation_rate": [1, 1], "kernel_size": [1, 1], "name": "conv4_block10_3_conv", "activity_regularizer": null, "kernel_constraint": null, "activation": "linear", "use_bias": true}}, {"name": "conv4_block10_out", "class_name": "Add", "inbound_nodes": [[["conv4_block9_out", 0, 0, {}], ["conv4_block10_3_conv", 0, 0, {}]]], "config": {"name": "conv4_block10_out", "trainable": true}}, {"name": "conv4_block11_preact_bn", "class_name": "BatchNormalization", "inbound_nodes": [[["conv4_block10_out", 0, 0, {}]]], "config": {"scale": true, "trainable": true, "beta_constraint": null, "beta_initializer": {"config": {}, "class_name": "Zeros"}, "epsilon": 1.001e-05, "gamma_initializer": {"config": {}, "class_name": "Ones"}, "gamma_constraint": null, "axis": 3, "gamma_regularizer": null, "center": true, "moving_variance_initializer": {"config": {}, "class_name": "Ones"}, "moving_mean_initializer": {"config": {}, "class_name": "Zeros"}, "momentum": 0.99, "name": "conv4_block11_preact_bn", "beta_regularizer": null}}, {"name": "conv4_block11_preact_relu", "class_name": "Activation", "inbound_nodes": [[["conv4_block11_preact_bn", 0, 0, {}]]], "config": {"name": "conv4_block11_preact_relu", "trainable": true, "activation": "relu"}}, {"name": "conv4_block11_1_conv", "class_name": "Conv2D", "inbound_nodes": [[["conv4_block11_preact_relu", 0, 0, {}]]], "config": {"strides": [1, 1], "trainable": true, "data_format": "channels_last", "bias_initializer": {"config": {}, "class_name": "Zeros"}, "bias_regularizer": null, "kernel_initializer": {"config": {"seed": null, "scale": 1.0, "distribution": "uniform", "mode": "fan_avg"}, "class_name": "VarianceScaling"}, "kernel_regularizer": null, "bias_constraint": null, "filters": 256, "padding": "valid", "dilation_rate": [1, 1], "kernel_size": [1, 1], "name": "conv4_block11_1_conv", "activity_regularizer": null, "kernel_constraint": null, "activation": "linear", "use_bias": false}}, {"name": "conv4_block11_1_bn", "class_name": "BatchNormalization", "inbound_nodes": [[["conv4_block11_1_conv", 0, 0, {}]]], "config": {"scale": true, "trainable": true, "beta_constraint": null, "beta_initializer": {"config": {}, "class_name": "Zeros"}, "epsilon": 1.001e-05, "gamma_initializer": {"config": {}, "class_name": "Ones"}, "gamma_constraint": null, "axis": 3, "gamma_regularizer": null, "center": true, "moving_variance_initializer": {"config": {}, "class_name": "Ones"}, "moving_mean_initializer": {"config": {}, "class_name": "Zeros"}, "momentum": 0.99, "name": "conv4_block11_1_bn", "beta_regularizer": null}}, {"name": "conv4_block11_1_relu", "class_name": "Activation", "inbound_nodes": [[["conv4_block11_1_bn", 0, 0, {}]]], "config": {"name": "conv4_block11_1_relu", "trainable": true, "activation": "relu"}}, {"name": "conv4_block11_2_pad", "class_name": "ZeroPadding2D", "inbound_nodes": [[["conv4_block11_1_relu", 0, 0, {}]]], "config": {"padding": [[1, 1], [1, 1]], "name": "conv4_block11_2_pad", "trainable": true, "data_format": "channels_last"}}, {"name": "conv4_block11_2_conv", "class_name": "Conv2D", "inbound_nodes": [[["conv4_block11_2_pad", 0, 0, {}]]], "config": {"strides": [1, 1], "trainable": true, "data_format": "channels_last", "bias_initializer": {"config": {}, "class_name": "Zeros"}, "bias_regularizer": null, "kernel_initializer": {"config": {"seed": null, "scale": 1.0, "distribution": "uniform", "mode": "fan_avg"}, "class_name": "VarianceScaling"}, "kernel_regularizer": null, "bias_constraint": null, "filters": 256, "padding": "valid", "dilation_rate": [1, 1], "kernel_size": [3, 3], "name": "conv4_block11_2_conv", "activity_regularizer": null, "kernel_constraint": null, "activation": "linear", "use_bias": false}}, {"name": "conv4_block11_2_bn", "class_name": "BatchNormalization", "inbound_nodes": [[["conv4_block11_2_conv", 0, 0, {}]]], "config": {"scale": true, "trainable": true, "beta_constraint": null, "beta_initializer": {"config": {}, "class_name": "Zeros"}, "epsilon": 1.001e-05, "gamma_initializer": {"config": {}, "class_name": "Ones"}, "gamma_constraint": null, "axis": 3, "gamma_regularizer": null, "center": true, "moving_variance_initializer": {"config": {}, "class_name": "Ones"}, "moving_mean_initializer": {"config": {}, "class_name": "Zeros"}, "momentum": 0.99, "name": "conv4_block11_2_bn", "beta_regularizer": null}}, {"name": "conv4_block11_2_relu", "class_name": "Activation", "inbound_nodes": [[["conv4_block11_2_bn", 0, 0, {}]]], "config": {"name": "conv4_block11_2_relu", "trainable": true, "activation": "relu"}}, {"name": "conv4_block11_3_conv", "class_name": "Conv2D", "inbound_nodes": [[["conv4_block11_2_relu", 0, 0, {}]]], "config": {"strides": [1, 1], "trainable": true, "data_format": "channels_last", "bias_initializer": {"config": {}, "class_name": "Zeros"}, "bias_regularizer": null, "kernel_initializer": {"config": {"seed": null, "scale": 1.0, "distribution": "uniform", "mode": "fan_avg"}, "class_name": "VarianceScaling"}, "kernel_regularizer": null, "bias_constraint": null, "filters": 1024, "padding": "valid", "dilation_rate": [1, 1], "kernel_size": [1, 1], "name": "conv4_block11_3_conv", "activity_regularizer": null, "kernel_constraint": null, "activation": "linear", "use_bias": true}}, {"name": "conv4_block11_out", "class_name": "Add", "inbound_nodes": [[["conv4_block10_out", 0, 0, {}], ["conv4_block11_3_conv", 0, 0, {}]]], "config": {"name": "conv4_block11_out", "trainable": true}}, {"name": "conv4_block12_preact_bn", "class_name": "BatchNormalization", "inbound_nodes": [[["conv4_block11_out", 0, 0, {}]]], "config": {"scale": true, "trainable": true, "beta_constraint": null, "beta_initializer": {"config": {}, "class_name": "Zeros"}, "epsilon": 1.001e-05, "gamma_initializer": {"config": {}, "class_name": "Ones"}, "gamma_constraint": null, "axis": 3, "gamma_regularizer": null, "center": true, "moving_variance_initializer": {"config": {}, "class_name": "Ones"}, "moving_mean_initializer": {"config": {}, "class_name": "Zeros"}, "momentum": 0.99, "name": "conv4_block12_preact_bn", "beta_regularizer": null}}, {"name": "conv4_block12_preact_relu", "class_name": "Activation", "inbound_nodes": [[["conv4_block12_preact_bn", 0, 0, {}]]], "config": {"name": "conv4_block12_preact_relu", "trainable": true, "activation": "relu"}}, {"name": "conv4_block12_1_conv", "class_name": "Conv2D", "inbound_nodes": [[["conv4_block12_preact_relu", 0, 0, {}]]], "config": {"strides": [1, 1], "trainable": true, "data_format": "channels_last", "bias_initializer": {"config": {}, "class_name": "Zeros"}, "bias_regularizer": null, "kernel_initializer": {"config": {"seed": null, "scale": 1.0, "distribution": "uniform", "mode": "fan_avg"}, "class_name": "VarianceScaling"}, "kernel_regularizer": null, "bias_constraint": null, "filters": 256, "padding": "valid", "dilation_rate": [1, 1], "kernel_size": [1, 1], "name": "conv4_block12_1_conv", "activity_regularizer": null, "kernel_constraint": null, "activation": "linear", "use_bias": false}}, {"name": "conv4_block12_1_bn", "class_name": "BatchNormalization", "inbound_nodes": [[["conv4_block12_1_conv", 0, 0, {}]]], "config": {"scale": true, "trainable": true, "beta_constraint": null, "beta_initializer": {"config": {}, "class_name": "Zeros"}, "epsilon": 1.001e-05, "gamma_initializer": {"config": {}, "class_name": "Ones"}, "gamma_constraint": null, "axis": 3, "gamma_regularizer": null, "center": true, "moving_variance_initializer": {"config": {}, "class_name": "Ones"}, "moving_mean_initializer": {"config": {}, "class_name": "Zeros"}, "momentum": 0.99, "name": "conv4_block12_1_bn", "beta_regularizer": null}}, {"name": "conv4_block12_1_relu", "class_name": "Activation", "inbound_nodes": [[["conv4_block12_1_bn", 0, 0, {}]]], "config": {"name": "conv4_block12_1_relu", "trainable": true, "activation": "relu"}}, {"name": "conv4_block12_2_pad", "class_name": "ZeroPadding2D", "inbound_nodes": [[["conv4_block12_1_relu", 0, 0, {}]]], "config": {"padding": [[1, 1], [1, 1]], "name": "conv4_block12_2_pad", "trainable": true, "data_format": "channels_last"}}, {"name": "conv4_block12_2_conv", "class_name": "Conv2D", "inbound_nodes": [[["conv4_block12_2_pad", 0, 0, {}]]], "config": {"strides": [1, 1], "trainable": true, "data_format": "channels_last", "bias_initializer": {"config": {}, "class_name": "Zeros"}, "bias_regularizer": null, "kernel_initializer": {"config": {"seed": null, "scale": 1.0, "distribution": "uniform", "mode": "fan_avg"}, "class_name": "VarianceScaling"}, "kernel_regularizer": null, "bias_constraint": null, "filters": 256, "padding": "valid", "dilation_rate": [1, 1], "kernel_size": [3, 3], "name": "conv4_block12_2_conv", "activity_regularizer": null, "kernel_constraint": null, "activation": "linear", "use_bias": false}}, {"name": "conv4_block12_2_bn", "class_name": "BatchNormalization", "inbound_nodes": [[["conv4_block12_2_conv", 0, 0, {}]]], "config": {"scale": true, "trainable": true, "beta_constraint": null, "beta_initializer": {"config": {}, "class_name": "Zeros"}, "epsilon": 1.001e-05, "gamma_initializer": {"config": {}, "class_name": "Ones"}, "gamma_constraint": null, "axis": 3, "gamma_regularizer": null, "center": true, "moving_variance_initializer": {"config": {}, "class_name": "Ones"}, "moving_mean_initializer": {"config": {}, "class_name": "Zeros"}, "momentum": 0.99, "name": "conv4_block12_2_bn", "beta_regularizer": null}}, {"name": "conv4_block12_2_relu", "class_name": "Activation", "inbound_nodes": [[["conv4_block12_2_bn", 0, 0, {}]]], "config": {"name": "conv4_block12_2_relu", "trainable": true, "activation": "relu"}}, {"name": "conv4_block12_3_conv", "class_name": "Conv2D", "inbound_nodes": [[["conv4_block12_2_relu", 0, 0, {}]]], "config": {"strides": [1, 1], "trainable": true, "data_format": "channels_last", "bias_initializer": {"config": {}, "class_name": "Zeros"}, "bias_regularizer": null, "kernel_initializer": {"config": {"seed": null, "scale": 1.0, "distribution": "uniform", "mode": "fan_avg"}, "class_name": "VarianceScaling"}, "kernel_regularizer": null, "bias_constraint": null, "filters": 1024, "padding": "valid", "dilation_rate": [1, 1], "kernel_size": [1, 1], "name": "conv4_block12_3_conv", "activity_regularizer": null, "kernel_constraint": null, "activation": "linear", "use_bias": true}}, {"name": "conv4_block12_out", "class_name": "Add", "inbound_nodes": [[["conv4_block11_out", 0, 0, {}], ["conv4_block12_3_conv", 0, 0, {}]]], "config": {"name": "conv4_block12_out", "trainable": true}}, {"name": "conv4_block13_preact_bn", "class_name": "BatchNormalization", "inbound_nodes": [[["conv4_block12_out", 0, 0, {}]]], "config": {"scale": true, "trainable": true, "beta_constraint": null, "beta_initializer": {"config": {}, "class_name": "Zeros"}, "epsilon": 1.001e-05, "gamma_initializer": {"config": {}, "class_name": "Ones"}, "gamma_constraint": null, "axis": 3, "gamma_regularizer": null, "center": true, "moving_variance_initializer": {"config": {}, "class_name": "Ones"}, "moving_mean_initializer": {"config": {}, "class_name": "Zeros"}, "momentum": 0.99, "name": "conv4_block13_preact_bn", "beta_regularizer": null}}, {"name": "conv4_block13_preact_relu", "class_name": "Activation", "inbound_nodes": [[["conv4_block13_preact_bn", 0, 0, {}]]], "config": {"name": "conv4_block13_preact_relu", "trainable": true, "activation": "relu"}}, {"name": "conv4_block13_1_conv", "class_name": "Conv2D", "inbound_nodes": [[["conv4_block13_preact_relu", 0, 0, {}]]], "config": {"strides": [1, 1], "trainable": true, "data_format": "channels_last", "bias_initializer": {"config": {}, "class_name": "Zeros"}, "bias_regularizer": null, "kernel_initializer": {"config": {"seed": null, "scale": 1.0, "distribution": "uniform", "mode": "fan_avg"}, "class_name": "VarianceScaling"}, "kernel_regularizer": null, "bias_constraint": null, "filters": 256, "padding": "valid", "dilation_rate": [1, 1], "kernel_size": [1, 1], "name": "conv4_block13_1_conv", "activity_regularizer": null, "kernel_constraint": null, "activation": "linear", "use_bias": false}}, {"name": "conv4_block13_1_bn", "class_name": "BatchNormalization", "inbound_nodes": [[["conv4_block13_1_conv", 0, 0, {}]]], "config": {"scale": true, "trainable": true, "beta_constraint": null, "beta_initializer": {"config": {}, "class_name": "Zeros"}, "epsilon": 1.001e-05, "gamma_initializer": {"config": {}, "class_name": "Ones"}, "gamma_constraint": null, "axis": 3, "gamma_regularizer": null, "center": true, "moving_variance_initializer": {"config": {}, "class_name": "Ones"}, "moving_mean_initializer": {"config": {}, "class_name": "Zeros"}, "momentum": 0.99, "name": "conv4_block13_1_bn", "beta_regularizer": null}}, {"name": "conv4_block13_1_relu", "class_name": "Activation", "inbound_nodes": [[["conv4_block13_1_bn", 0, 0, {}]]], "config": {"name": "conv4_block13_1_relu", "trainable": true, "activation": "relu"}}, {"name": "conv4_block13_2_pad", "class_name": "ZeroPadding2D", "inbound_nodes": [[["conv4_block13_1_relu", 0, 0, {}]]], "config": {"padding": [[1, 1], [1, 1]], "name": "conv4_block13_2_pad", "trainable": true, "data_format": "channels_last"}}, {"name": "conv4_block13_2_conv", "class_name": "Conv2D", "inbound_nodes": [[["conv4_block13_2_pad", 0, 0, {}]]], "config": {"strides": [1, 1], "trainable": true, "data_format": "channels_last", "bias_initializer": {"config": {}, "class_name": "Zeros"}, "bias_regularizer": null, "kernel_initializer": {"config": {"seed": null, "scale": 1.0, "distribution": "uniform", "mode": "fan_avg"}, "class_name": "VarianceScaling"}, "kernel_regularizer": null, "bias_constraint": null, "filters": 256, "padding": "valid", "dilation_rate": [1, 1], "kernel_size": [3, 3], "name": "conv4_block13_2_conv", "activity_regularizer": null, "kernel_constraint": null, "activation": "linear", "use_bias": false}}, {"name": "conv4_block13_2_bn", "class_name": "BatchNormalization", "inbound_nodes": [[["conv4_block13_2_conv", 0, 0, {}]]], "config": {"scale": true, "trainable": true, "beta_constraint": null, "beta_initializer": {"config": {}, "class_name": "Zeros"}, "epsilon": 1.001e-05, "gamma_initializer": {"config": {}, "class_name": "Ones"}, "gamma_constraint": null, "axis": 3, "gamma_regularizer": null, "center": true, "moving_variance_initializer": {"config": {}, "class_name": "Ones"}, "moving_mean_initializer": {"config": {}, "class_name": "Zeros"}, "momentum": 0.99, "name": "conv4_block13_2_bn", "beta_regularizer": null}}, {"name": "conv4_block13_2_relu", "class_name": "Activation", "inbound_nodes": [[["conv4_block13_2_bn", 0, 0, {}]]], "config": {"name": "conv4_block13_2_relu", "trainable": true, "activation": "relu"}}, {"name": "conv4_block13_3_conv", "class_name": "Conv2D", "inbound_nodes": [[["conv4_block13_2_relu", 0, 0, {}]]], "config": {"strides": [1, 1], "trainable": true, "data_format": "channels_last", "bias_initializer": {"config": {}, "class_name": "Zeros"}, "bias_regularizer": null, "kernel_initializer": {"config": {"seed": null, "scale": 1.0, "distribution": "uniform", "mode": "fan_avg"}, "class_name": "VarianceScaling"}, "kernel_regularizer": null, "bias_constraint": null, "filters": 1024, "padding": "valid", "dilation_rate": [1, 1], "kernel_size": [1, 1], "name": "conv4_block13_3_conv", "activity_regularizer": null, "kernel_constraint": null, "activation": "linear", "use_bias": true}}, {"name": "conv4_block13_out", "class_name": "Add", "inbound_nodes": [[["conv4_block12_out", 0, 0, {}], ["conv4_block13_3_conv", 0, 0, {}]]], "config": {"name": "conv4_block13_out", "trainable": true}}, {"name": "conv4_block14_preact_bn", "class_name": "BatchNormalization", "inbound_nodes": [[["conv4_block13_out", 0, 0, {}]]], "config": {"scale": true, "trainable": true, "beta_constraint": null, "beta_initializer": {"config": {}, "class_name": "Zeros"}, "epsilon": 1.001e-05, "gamma_initializer": {"config": {}, "class_name": "Ones"}, "gamma_constraint": null, "axis": 3, "gamma_regularizer": null, "center": true, "moving_variance_initializer": {"config": {}, "class_name": "Ones"}, "moving_mean_initializer": {"config": {}, "class_name": "Zeros"}, "momentum": 0.99, "name": "conv4_block14_preact_bn", "beta_regularizer": null}}, {"name": "conv4_block14_preact_relu", "class_name": "Activation", "inbound_nodes": [[["conv4_block14_preact_bn", 0, 0, {}]]], "config": {"name": "conv4_block14_preact_relu", "trainable": true, "activation": "relu"}}, {"name": "conv4_block14_1_conv", "class_name": "Conv2D", "inbound_nodes": [[["conv4_block14_preact_relu", 0, 0, {}]]], "config": {"strides": [1, 1], "trainable": true, "data_format": "channels_last", "bias_initializer": {"config": {}, "class_name": "Zeros"}, "bias_regularizer": null, "kernel_initializer": {"config": {"seed": null, "scale": 1.0, "distribution": "uniform", "mode": "fan_avg"}, "class_name": "VarianceScaling"}, "kernel_regularizer": null, "bias_constraint": null, "filters": 256, "padding": "valid", "dilation_rate": [1, 1], "kernel_size": [1, 1], "name": "conv4_block14_1_conv", "activity_regularizer": null, "kernel_constraint": null, "activation": "linear", "use_bias": false}}, {"name": "conv4_block14_1_bn", "class_name": "BatchNormalization", "inbound_nodes": [[["conv4_block14_1_conv", 0, 0, {}]]], "config": {"scale": true, "trainable": true, "beta_constraint": null, "beta_initializer": {"config": {}, "class_name": "Zeros"}, "epsilon": 1.001e-05, "gamma_initializer": {"config": {}, "class_name": "Ones"}, "gamma_constraint": null, "axis": 3, "gamma_regularizer": null, "center": true, "moving_variance_initializer": {"config": {}, "class_name": "Ones"}, "moving_mean_initializer": {"config": {}, "class_name": "Zeros"}, "momentum": 0.99, "name": "conv4_block14_1_bn", "beta_regularizer": null}}, {"name": "conv4_block14_1_relu", "class_name": "Activation", "inbound_nodes": [[["conv4_block14_1_bn", 0, 0, {}]]], "config": {"name": "conv4_block14_1_relu", "trainable": true, "activation": "relu"}}, {"name": "conv4_block14_2_pad", "class_name": "ZeroPadding2D", "inbound_nodes": [[["conv4_block14_1_relu", 0, 0, {}]]], "config": {"padding": [[1, 1], [1, 1]], "name": "conv4_block14_2_pad", "trainable": true, "data_format": "channels_last"}}, {"name": "conv4_block14_2_conv", "class_name": "Conv2D", "inbound_nodes": [[["conv4_block14_2_pad", 0, 0, {}]]], "config": {"strides": [1, 1], "trainable": true, "data_format": "channels_last", "bias_initializer": {"config": {}, "class_name": "Zeros"}, "bias_regularizer": null, "kernel_initializer": {"config": {"seed": null, "scale": 1.0, "distribution": "uniform", "mode": "fan_avg"}, "class_name": "VarianceScaling"}, "kernel_regularizer": null, "bias_constraint": null, "filters": 256, "padding": "valid", "dilation_rate": [1, 1], "kernel_size": [3, 3], "name": "conv4_block14_2_conv", "activity_regularizer": null, "kernel_constraint": null, "activation": "linear", "use_bias": false}}, {"name": "conv4_block14_2_bn", "class_name": "BatchNormalization", "inbound_nodes": [[["conv4_block14_2_conv", 0, 0, {}]]], "config": {"scale": true, "trainable": true, "beta_constraint": null, "beta_initializer": {"config": {}, "class_name": "Zeros"}, "epsilon": 1.001e-05, "gamma_initializer": {"config": {}, "class_name": "Ones"}, "gamma_constraint": null, "axis": 3, "gamma_regularizer": null, "center": true, "moving_variance_initializer": {"config": {}, "class_name": "Ones"}, "moving_mean_initializer": {"config": {}, "class_name": "Zeros"}, "momentum": 0.99, "name": "conv4_block14_2_bn", "beta_regularizer": null}}, {"name": "conv4_block14_2_relu", "class_name": "Activation", "inbound_nodes": [[["conv4_block14_2_bn", 0, 0, {}]]], "config": {"name": "conv4_block14_2_relu", "trainable": true, "activation": "relu"}}, {"name": "conv4_block14_3_conv", "class_name": "Conv2D", "inbound_nodes": [[["conv4_block14_2_relu", 0, 0, {}]]], "config": {"strides": [1, 1], "trainable": true, "data_format": "channels_last", "bias_initializer": {"config": {}, "class_name": "Zeros"}, "bias_regularizer": null, "kernel_initializer": {"config": {"seed": null, "scale": 1.0, "distribution": "uniform", "mode": "fan_avg"}, "class_name": "VarianceScaling"}, "kernel_regularizer": null, "bias_constraint": null, "filters": 1024, "padding": "valid", "dilation_rate": [1, 1], "kernel_size": [1, 1], "name": "conv4_block14_3_conv", "activity_regularizer": null, "kernel_constraint": null, "activation": "linear", "use_bias": true}}, {"name": "conv4_block14_out", "class_name": "Add", "inbound_nodes": [[["conv4_block13_out", 0, 0, {}], ["conv4_block14_3_conv", 0, 0, {}]]], "config": {"name": "conv4_block14_out", "trainable": true}}, {"name": "conv4_block15_preact_bn", "class_name": "BatchNormalization", "inbound_nodes": [[["conv4_block14_out", 0, 0, {}]]], "config": {"scale": true, "trainable": true, "beta_constraint": null, "beta_initializer": {"config": {}, "class_name": "Zeros"}, "epsilon": 1.001e-05, "gamma_initializer": {"config": {}, "class_name": "Ones"}, "gamma_constraint": null, "axis": 3, "gamma_regularizer": null, "center": true, "moving_variance_initializer": {"config": {}, "class_name": "Ones"}, "moving_mean_initializer": {"config": {}, "class_name": "Zeros"}, "momentum": 0.99, "name": "conv4_block15_preact_bn", "beta_regularizer": null}}, {"name": "conv4_block15_preact_relu", "class_name": "Activation", "inbound_nodes": [[["conv4_block15_preact_bn", 0, 0, {}]]], "config": {"name": "conv4_block15_preact_relu", "trainable": true, "activation": "relu"}}, {"name": "conv4_block15_1_conv", "class_name": "Conv2D", "inbound_nodes": [[["conv4_block15_preact_relu", 0, 0, {}]]], "config": {"strides": [1, 1], "trainable": true, "data_format": "channels_last", "bias_initializer": {"config": {}, "class_name": "Zeros"}, "bias_regularizer": null, "kernel_initializer": {"config": {"seed": null, "scale": 1.0, "distribution": "uniform", "mode": "fan_avg"}, "class_name": "VarianceScaling"}, "kernel_regularizer": null, "bias_constraint": null, "filters": 256, "padding": "valid", "dilation_rate": [1, 1], "kernel_size": [1, 1], "name": "conv4_block15_1_conv", "activity_regularizer": null, "kernel_constraint": null, "activation": "linear", "use_bias": false}}, {"name": "conv4_block15_1_bn", "class_name": "BatchNormalization", "inbound_nodes": [[["conv4_block15_1_conv", 0, 0, {}]]], "config": {"scale": true, "trainable": true, "beta_constraint": null, "beta_initializer": {"config": {}, "class_name": "Zeros"}, "epsilon": 1.001e-05, "gamma_initializer": {"config": {}, "class_name": "Ones"}, "gamma_constraint": null, "axis": 3, "gamma_regularizer": null, "center": true, "moving_variance_initializer": {"config": {}, "class_name": "Ones"}, "moving_mean_initializer": {"config": {}, "class_name": "Zeros"}, "momentum": 0.99, "name": "conv4_block15_1_bn", "beta_regularizer": null}}, {"name": "conv4_block15_1_relu", "class_name": "Activation", "inbound_nodes": [[["conv4_block15_1_bn", 0, 0, {}]]], "config": {"name": "conv4_block15_1_relu", "trainable": true, "activation": "relu"}}, {"name": "conv4_block15_2_pad", "class_name": "ZeroPadding2D", "inbound_nodes": [[["conv4_block15_1_relu", 0, 0, {}]]], "config": {"padding": [[1, 1], [1, 1]], "name": "conv4_block15_2_pad", "trainable": true, "data_format": "channels_last"}}, {"name": "conv4_block15_2_conv", "class_name": "Conv2D", "inbound_nodes": [[["conv4_block15_2_pad", 0, 0, {}]]], "config": {"strides": [1, 1], "trainable": true, "data_format": "channels_last", "bias_initializer": {"config": {}, "class_name": "Zeros"}, "bias_regularizer": null, "kernel_initializer": {"config": {"seed": null, "scale": 1.0, "distribution": "uniform", "mode": "fan_avg"}, "class_name": "VarianceScaling"}, "kernel_regularizer": null, "bias_constraint": null, "filters": 256, "padding": "valid", "dilation_rate": [1, 1], "kernel_size": [3, 3], "name": "conv4_block15_2_conv", "activity_regularizer": null, "kernel_constraint": null, "activation": "linear", "use_bias": false}}, {"name": "conv4_block15_2_bn", "class_name": "BatchNormalization", "inbound_nodes": [[["conv4_block15_2_conv", 0, 0, {}]]], "config": {"scale": true, "trainable": true, "beta_constraint": null, "beta_initializer": {"config": {}, "class_name": "Zeros"}, "epsilon": 1.001e-05, "gamma_initializer": {"config": {}, "class_name": "Ones"}, "gamma_constraint": null, "axis": 3, "gamma_regularizer": null, "center": true, "moving_variance_initializer": {"config": {}, "class_name": "Ones"}, "moving_mean_initializer": {"config": {}, "class_name": "Zeros"}, "momentum": 0.99, "name": "conv4_block15_2_bn", "beta_regularizer": null}}, {"name": "conv4_block15_2_relu", "class_name": "Activation", "inbound_nodes": [[["conv4_block15_2_bn", 0, 0, {}]]], "config": {"name": "conv4_block15_2_relu", "trainable": true, "activation": "relu"}}, {"name": "conv4_block15_3_conv", "class_name": "Conv2D", "inbound_nodes": [[["conv4_block15_2_relu", 0, 0, {}]]], "config": {"strides": [1, 1], "trainable": true, "data_format": "channels_last", "bias_initializer": {"config": {}, "class_name": "Zeros"}, "bias_regularizer": null, "kernel_initializer": {"config": {"seed": null, "scale": 1.0, "distribution": "uniform", "mode": "fan_avg"}, "class_name": "VarianceScaling"}, "kernel_regularizer": null, "bias_constraint": null, "filters": 1024, "padding": "valid", "dilation_rate": [1, 1], "kernel_size": [1, 1], "name": "conv4_block15_3_conv", "activity_regularizer": null, "kernel_constraint": null, "activation": "linear", "use_bias": true}}, {"name": "conv4_block15_out", "class_name": "Add", "inbound_nodes": [[["conv4_block14_out", 0, 0, {}], ["conv4_block15_3_conv", 0, 0, {}]]], "config": {"name": "conv4_block15_out", "trainable": true}}, {"name": "conv4_block16_preact_bn", "class_name": "BatchNormalization", "inbound_nodes": [[["conv4_block15_out", 0, 0, {}]]], "config": {"scale": true, "trainable": true, "beta_constraint": null, "beta_initializer": {"config": {}, "class_name": "Zeros"}, "epsilon": 1.001e-05, "gamma_initializer": {"config": {}, "class_name": "Ones"}, "gamma_constraint": null, "axis": 3, "gamma_regularizer": null, "center": true, "moving_variance_initializer": {"config": {}, "class_name": "Ones"}, "moving_mean_initializer": {"config": {}, "class_name": "Zeros"}, "momentum": 0.99, "name": "conv4_block16_preact_bn", "beta_regularizer": null}}, {"name": "conv4_block16_preact_relu", "class_name": "Activation", "inbound_nodes": [[["conv4_block16_preact_bn", 0, 0, {}]]], "config": {"name": "conv4_block16_preact_relu", "trainable": true, "activation": "relu"}}, {"name": "conv4_block16_1_conv", "class_name": "Conv2D", "inbound_nodes": [[["conv4_block16_preact_relu", 0, 0, {}]]], "config": {"strides": [1, 1], "trainable": true, "data_format": "channels_last", "bias_initializer": {"config": {}, "class_name": "Zeros"}, "bias_regularizer": null, "kernel_initializer": {"config": {"seed": null, "scale": 1.0, "distribution": "uniform", "mode": "fan_avg"}, "class_name": "VarianceScaling"}, "kernel_regularizer": null, "bias_constraint": null, "filters": 256, "padding": "valid", "dilation_rate": [1, 1], "kernel_size": [1, 1], "name": "conv4_block16_1_conv", "activity_regularizer": null, "kernel_constraint": null, "activation": "linear", "use_bias": false}}, {"name": "conv4_block16_1_bn", "class_name": "BatchNormalization", "inbound_nodes": [[["conv4_block16_1_conv", 0, 0, {}]]], "config": {"scale": true, "trainable": true, "beta_constraint": null, "beta_initializer": {"config": {}, "class_name": "Zeros"}, "epsilon": 1.001e-05, "gamma_initializer": {"config": {}, "class_name": "Ones"}, "gamma_constraint": null, "axis": 3, "gamma_regularizer": null, "center": true, "moving_variance_initializer": {"config": {}, "class_name": "Ones"}, "moving_mean_initializer": {"config": {}, "class_name": "Zeros"}, "momentum": 0.99, "name": "conv4_block16_1_bn", "beta_regularizer": null}}, {"name": "conv4_block16_1_relu", "class_name": "Activation", "inbound_nodes": [[["conv4_block16_1_bn", 0, 0, {}]]], "config": {"name": "conv4_block16_1_relu", "trainable": true, "activation": "relu"}}, {"name": "conv4_block16_2_pad", "class_name": "ZeroPadding2D", "inbound_nodes": [[["conv4_block16_1_relu", 0, 0, {}]]], "config": {"padding": [[1, 1], [1, 1]], "name": "conv4_block16_2_pad", "trainable": true, "data_format": "channels_last"}}, {"name": "conv4_block16_2_conv", "class_name": "Conv2D", "inbound_nodes": [[["conv4_block16_2_pad", 0, 0, {}]]], "config": {"strides": [1, 1], "trainable": true, "data_format": "channels_last", "bias_initializer": {"config": {}, "class_name": "Zeros"}, "bias_regularizer": null, "kernel_initializer": {"config": {"seed": null, "scale": 1.0, "distribution": "uniform", "mode": "fan_avg"}, "class_name": "VarianceScaling"}, "kernel_regularizer": null, "bias_constraint": null, "filters": 256, "padding": "valid", "dilation_rate": [1, 1], "kernel_size": [3, 3], "name": "conv4_block16_2_conv", "activity_regularizer": null, "kernel_constraint": null, "activation": "linear", "use_bias": false}}, {"name": "conv4_block16_2_bn", "class_name": "BatchNormalization", "inbound_nodes": [[["conv4_block16_2_conv", 0, 0, {}]]], "config": {"scale": true, "trainable": true, "beta_constraint": null, "beta_initializer": {"config": {}, "class_name": "Zeros"}, "epsilon": 1.001e-05, "gamma_initializer": {"config": {}, "class_name": "Ones"}, "gamma_constraint": null, "axis": 3, "gamma_regularizer": null, "center": true, "moving_variance_initializer": {"config": {}, "class_name": "Ones"}, "moving_mean_initializer": {"config": {}, "class_name": "Zeros"}, "momentum": 0.99, "name": "conv4_block16_2_bn", "beta_regularizer": null}}, {"name": "conv4_block16_2_relu", "class_name": "Activation", "inbound_nodes": [[["conv4_block16_2_bn", 0, 0, {}]]], "config": {"name": "conv4_block16_2_relu", "trainable": true, "activation": "relu"}}, {"name": "conv4_block16_3_conv", "class_name": "Conv2D", "inbound_nodes": [[["conv4_block16_2_relu", 0, 0, {}]]], "config": {"strides": [1, 1], "trainable": true, "data_format": "channels_last", "bias_initializer": {"config": {}, "class_name": "Zeros"}, "bias_regularizer": null, "kernel_initializer": {"config": {"seed": null, "scale": 1.0, "distribution": "uniform", "mode": "fan_avg"}, "class_name": "VarianceScaling"}, "kernel_regularizer": null, "bias_constraint": null, "filters": 1024, "padding": "valid", "dilation_rate": [1, 1], "kernel_size": [1, 1], "name": "conv4_block16_3_conv", "activity_regularizer": null, "kernel_constraint": null, "activation": "linear", "use_bias": true}}, {"name": "conv4_block16_out", "class_name": "Add", "inbound_nodes": [[["conv4_block15_out", 0, 0, {}], ["conv4_block16_3_conv", 0, 0, {}]]], "config": {"name": "conv4_block16_out", "trainable": true}}, {"name": "conv4_block17_preact_bn", "class_name": "BatchNormalization", "inbound_nodes": [[["conv4_block16_out", 0, 0, {}]]], "config": {"scale": true, "trainable": true, "beta_constraint": null, "beta_initializer": {"config": {}, "class_name": "Zeros"}, "epsilon": 1.001e-05, "gamma_initializer": {"config": {}, "class_name": "Ones"}, "gamma_constraint": null, "axis": 3, "gamma_regularizer": null, "center": true, "moving_variance_initializer": {"config": {}, "class_name": "Ones"}, "moving_mean_initializer": {"config": {}, "class_name": "Zeros"}, "momentum": 0.99, "name": "conv4_block17_preact_bn", "beta_regularizer": null}}, {"name": "conv4_block17_preact_relu", "class_name": "Activation", "inbound_nodes": [[["conv4_block17_preact_bn", 0, 0, {}]]], "config": {"name": "conv4_block17_preact_relu", "trainable": true, "activation": "relu"}}, {"name": "conv4_block17_1_conv", "class_name": "Conv2D", "inbound_nodes": [[["conv4_block17_preact_relu", 0, 0, {}]]], "config": {"strides": [1, 1], "trainable": true, "data_format": "channels_last", "bias_initializer": {"config": {}, "class_name": "Zeros"}, "bias_regularizer": null, "kernel_initializer": {"config": {"seed": null, "scale": 1.0, "distribution": "uniform", "mode": "fan_avg"}, "class_name": "VarianceScaling"}, "kernel_regularizer": null, "bias_constraint": null, "filters": 256, "padding": "valid", "dilation_rate": [1, 1], "kernel_size": [1, 1], "name": "conv4_block17_1_conv", "activity_regularizer": null, "kernel_constraint": null, "activation": "linear", "use_bias": false}}, {"name": "conv4_block17_1_bn", "class_name": "BatchNormalization", "inbound_nodes": [[["conv4_block17_1_conv", 0, 0, {}]]], "config": {"scale": true, "trainable": true, "beta_constraint": null, "beta_initializer": {"config": {}, "class_name": "Zeros"}, "epsilon": 1.001e-05, "gamma_initializer": {"config": {}, "class_name": "Ones"}, "gamma_constraint": null, "axis": 3, "gamma_regularizer": null, "center": true, "moving_variance_initializer": {"config": {}, "class_name": "Ones"}, "moving_mean_initializer": {"config": {}, "class_name": "Zeros"}, "momentum": 0.99, "name": "conv4_block17_1_bn", "beta_regularizer": null}}, {"name": "conv4_block17_1_relu", "class_name": "Activation", "inbound_nodes": [[["conv4_block17_1_bn", 0, 0, {}]]], "config": {"name": "conv4_block17_1_relu", "trainable": true, "activation": "relu"}}, {"name": "conv4_block17_2_pad", "class_name": "ZeroPadding2D", "inbound_nodes": [[["conv4_block17_1_relu", 0, 0, {}]]], "config": {"padding": [[1, 1], [1, 1]], "name": "conv4_block17_2_pad", "trainable": true, "data_format": "channels_last"}}, {"name": "conv4_block17_2_conv", "class_name": "Conv2D", "inbound_nodes": [[["conv4_block17_2_pad", 0, 0, {}]]], "config": {"strides": [1, 1], "trainable": true, "data_format": "channels_last", "bias_initializer": {"config": {}, "class_name": "Zeros"}, "bias_regularizer": null, "kernel_initializer": {"config": {"seed": null, "scale": 1.0, "distribution": "uniform", "mode": "fan_avg"}, "class_name": "VarianceScaling"}, "kernel_regularizer": null, "bias_constraint": null, "filters": 256, "padding": "valid", "dilation_rate": [1, 1], "kernel_size": [3, 3], "name": "conv4_block17_2_conv", "activity_regularizer": null, "kernel_constraint": null, "activation": "linear", "use_bias": false}}, {"name": "conv4_block17_2_bn", "class_name": "BatchNormalization", "inbound_nodes": [[["conv4_block17_2_conv", 0, 0, {}]]], "config": {"scale": true, "trainable": true, "beta_constraint": null, "beta_initializer": {"config": {}, "class_name": "Zeros"}, "epsilon": 1.001e-05, "gamma_initializer": {"config": {}, "class_name": "Ones"}, "gamma_constraint": null, "axis": 3, "gamma_regularizer": null, "center": true, "moving_variance_initializer": {"config": {}, "class_name": "Ones"}, "moving_mean_initializer": {"config": {}, "class_name": "Zeros"}, "momentum": 0.99, "name": "conv4_block17_2_bn", "beta_regularizer": null}}, {"name": "conv4_block17_2_relu", "class_name": "Activation", "inbound_nodes": [[["conv4_block17_2_bn", 0, 0, {}]]], "config": {"name": "conv4_block17_2_relu", "trainable": true, "activation": "relu"}}, {"name": "conv4_block17_3_conv", "class_name": "Conv2D", "inbound_nodes": [[["conv4_block17_2_relu", 0, 0, {}]]], "config": {"strides": [1, 1], "trainable": true, "data_format": "channels_last", "bias_initializer": {"config": {}, "class_name": "Zeros"}, "bias_regularizer": null, "kernel_initializer": {"config": {"seed": null, "scale": 1.0, "distribution": "uniform", "mode": "fan_avg"}, "class_name": "VarianceScaling"}, "kernel_regularizer": null, "bias_constraint": null, "filters": 1024, "padding": "valid", "dilation_rate": [1, 1], "kernel_size": [1, 1], "name": "conv4_block17_3_conv", "activity_regularizer": null, "kernel_constraint": null, "activation": "linear", "use_bias": true}}, {"name": "conv4_block17_out", "class_name": "Add", "inbound_nodes": [[["conv4_block16_out", 0, 0, {}], ["conv4_block17_3_conv", 0, 0, {}]]], "config": {"name": "conv4_block17_out", "trainable": true}}, {"name": "conv4_block18_preact_bn", "class_name": "BatchNormalization", "inbound_nodes": [[["conv4_block17_out", 0, 0, {}]]], "config": {"scale": true, "trainable": true, "beta_constraint": null, "beta_initializer": {"config": {}, "class_name": "Zeros"}, "epsilon": 1.001e-05, "gamma_initializer": {"config": {}, "class_name": "Ones"}, "gamma_constraint": null, "axis": 3, "gamma_regularizer": null, "center": true, "moving_variance_initializer": {"config": {}, "class_name": "Ones"}, "moving_mean_initializer": {"config": {}, "class_name": "Zeros"}, "momentum": 0.99, "name": "conv4_block18_preact_bn", "beta_regularizer": null}}, {"name": "conv4_block18_preact_relu", "class_name": "Activation", "inbound_nodes": [[["conv4_block18_preact_bn", 0, 0, {}]]], "config": {"name": "conv4_block18_preact_relu", "trainable": true, "activation": "relu"}}, {"name": "conv4_block18_1_conv", "class_name": "Conv2D", "inbound_nodes": [[["conv4_block18_preact_relu", 0, 0, {}]]], "config": {"strides": [1, 1], "trainable": true, "data_format": "channels_last", "bias_initializer": {"config": {}, "class_name": "Zeros"}, "bias_regularizer": null, "kernel_initializer": {"config": {"seed": null, "scale": 1.0, "distribution": "uniform", "mode": "fan_avg"}, "class_name": "VarianceScaling"}, "kernel_regularizer": null, "bias_constraint": null, "filters": 256, "padding": "valid", "dilation_rate": [1, 1], "kernel_size": [1, 1], "name": "conv4_block18_1_conv", "activity_regularizer": null, "kernel_constraint": null, "activation": "linear", "use_bias": false}}, {"name": "conv4_block18_1_bn", "class_name": "BatchNormalization", "inbound_nodes": [[["conv4_block18_1_conv", 0, 0, {}]]], "config": {"scale": true, "trainable": true, "beta_constraint": null, "beta_initializer": {"config": {}, "class_name": "Zeros"}, "epsilon": 1.001e-05, "gamma_initializer": {"config": {}, "class_name": "Ones"}, "gamma_constraint": null, "axis": 3, "gamma_regularizer": null, "center": true, "moving_variance_initializer": {"config": {}, "class_name": "Ones"}, "moving_mean_initializer": {"config": {}, "class_name": "Zeros"}, "momentum": 0.99, "name": "conv4_block18_1_bn", "beta_regularizer": null}}, {"name": "conv4_block18_1_relu", "class_name": "Activation", "inbound_nodes": [[["conv4_block18_1_bn", 0, 0, {}]]], "config": {"name": "conv4_block18_1_relu", "trainable": true, "activation": "relu"}}, {"name": "conv4_block18_2_pad", "class_name": "ZeroPadding2D", "inbound_nodes": [[["conv4_block18_1_relu", 0, 0, {}]]], "config": {"padding": [[1, 1], [1, 1]], "name": "conv4_block18_2_pad", "trainable": true, "data_format": "channels_last"}}, {"name": "conv4_block18_2_conv", "class_name": "Conv2D", "inbound_nodes": [[["conv4_block18_2_pad", 0, 0, {}]]], "config": {"strides": [1, 1], "trainable": true, "data_format": "channels_last", "bias_initializer": {"config": {}, "class_name": "Zeros"}, "bias_regularizer": null, "kernel_initializer": {"config": {"seed": null, "scale": 1.0, "distribution": "uniform", "mode": "fan_avg"}, "class_name": "VarianceScaling"}, "kernel_regularizer": null, "bias_constraint": null, "filters": 256, "padding": "valid", "dilation_rate": [1, 1], "kernel_size": [3, 3], "name": "conv4_block18_2_conv", "activity_regularizer": null, "kernel_constraint": null, "activation": "linear", "use_bias": false}}, {"name": "conv4_block18_2_bn", "class_name": "BatchNormalization", "inbound_nodes": [[["conv4_block18_2_conv", 0, 0, {}]]], "config": {"scale": true, "trainable": true, "beta_constraint": null, "beta_initializer": {"config": {}, "class_name": "Zeros"}, "epsilon": 1.001e-05, "gamma_initializer": {"config": {}, "class_name": "Ones"}, "gamma_constraint": null, "axis": 3, "gamma_regularizer": null, "center": true, "moving_variance_initializer": {"config": {}, "class_name": "Ones"}, "moving_mean_initializer": {"config": {}, "class_name": "Zeros"}, "momentum": 0.99, "name": "conv4_block18_2_bn", "beta_regularizer": null}}, {"name": "conv4_block18_2_relu", "class_name": "Activation", "inbound_nodes": [[["conv4_block18_2_bn", 0, 0, {}]]], "config": {"name": "conv4_block18_2_relu", "trainable": true, "activation": "relu"}}, {"name": "conv4_block18_3_conv", "class_name": "Conv2D", "inbound_nodes": [[["conv4_block18_2_relu", 0, 0, {}]]], "config": {"strides": [1, 1], "trainable": true, "data_format": "channels_last", "bias_initializer": {"config": {}, "class_name": "Zeros"}, "bias_regularizer": null, "kernel_initializer": {"config": {"seed": null, "scale": 1.0, "distribution": "uniform", "mode": "fan_avg"}, "class_name": "VarianceScaling"}, "kernel_regularizer": null, "bias_constraint": null, "filters": 1024, "padding": "valid", "dilation_rate": [1, 1], "kernel_size": [1, 1], "name": "conv4_block18_3_conv", "activity_regularizer": null, "kernel_constraint": null, "activation": "linear", "use_bias": true}}, {"name": "conv4_block18_out", "class_name": "Add", "inbound_nodes": [[["conv4_block17_out", 0, 0, {}], ["conv4_block18_3_conv", 0, 0, {}]]], "config": {"name": "conv4_block18_out", "trainable": true}}, {"name": "conv4_block19_preact_bn", "class_name": "BatchNormalization", "inbound_nodes": [[["conv4_block18_out", 0, 0, {}]]], "config": {"scale": true, "trainable": true, "beta_constraint": null, "beta_initializer": {"config": {}, "class_name": "Zeros"}, "epsilon": 1.001e-05, "gamma_initializer": {"config": {}, "class_name": "Ones"}, "gamma_constraint": null, "axis": 3, "gamma_regularizer": null, "center": true, "moving_variance_initializer": {"config": {}, "class_name": "Ones"}, "moving_mean_initializer": {"config": {}, "class_name": "Zeros"}, "momentum": 0.99, "name": "conv4_block19_preact_bn", "beta_regularizer": null}}, {"name": "conv4_block19_preact_relu", "class_name": "Activation", "inbound_nodes": [[["conv4_block19_preact_bn", 0, 0, {}]]], "config": {"name": "conv4_block19_preact_relu", "trainable": true, "activation": "relu"}}, {"name": "conv4_block19_1_conv", "class_name": "Conv2D", "inbound_nodes": [[["conv4_block19_preact_relu", 0, 0, {}]]], "config": {"strides": [1, 1], "trainable": true, "data_format": "channels_last", "bias_initializer": {"config": {}, "class_name": "Zeros"}, "bias_regularizer": null, "kernel_initializer": {"config": {"seed": null, "scale": 1.0, "distribution": "uniform", "mode": "fan_avg"}, "class_name": "VarianceScaling"}, "kernel_regularizer": null, "bias_constraint": null, "filters": 256, "padding": "valid", "dilation_rate": [1, 1], "kernel_size": [1, 1], "name": "conv4_block19_1_conv", "activity_regularizer": null, "kernel_constraint": null, "activation": "linear", "use_bias": false}}, {"name": "conv4_block19_1_bn", "class_name": "BatchNormalization", "inbound_nodes": [[["conv4_block19_1_conv", 0, 0, {}]]], "config": {"scale": true, "trainable": true, "beta_constraint": null, "beta_initializer": {"config": {}, "class_name": "Zeros"}, "epsilon": 1.001e-05, "gamma_initializer": {"config": {}, "class_name": "Ones"}, "gamma_constraint": null, "axis": 3, "gamma_regularizer": null, "center": true, "moving_variance_initializer": {"config": {}, "class_name": "Ones"}, "moving_mean_initializer": {"config": {}, "class_name": "Zeros"}, "momentum": 0.99, "name": "conv4_block19_1_bn", "beta_regularizer": null}}, {"name": "conv4_block19_1_relu", "class_name": "Activation", "inbound_nodes": [[["conv4_block19_1_bn", 0, 0, {}]]], "config": {"name": "conv4_block19_1_relu", "trainable": true, "activation": "relu"}}, {"name": "conv4_block19_2_pad", "class_name": "ZeroPadding2D", "inbound_nodes": [[["conv4_block19_1_relu", 0, 0, {}]]], "config": {"padding": [[1, 1], [1, 1]], "name": "conv4_block19_2_pad", "trainable": true, "data_format": "channels_last"}}, {"name": "conv4_block19_2_conv", "class_name": "Conv2D", "inbound_nodes": [[["conv4_block19_2_pad", 0, 0, {}]]], "config": {"strides": [1, 1], "trainable": true, "data_format": "channels_last", "bias_initializer": {"config": {}, "class_name": "Zeros"}, "bias_regularizer": null, "kernel_initializer": {"config": {"seed": null, "scale": 1.0, "distribution": "uniform", "mode": "fan_avg"}, "class_name": "VarianceScaling"}, "kernel_regularizer": null, "bias_constraint": null, "filters": 256, "padding": "valid", "dilation_rate": [1, 1], "kernel_size": [3, 3], "name": "conv4_block19_2_conv", "activity_regularizer": null, "kernel_constraint": null, "activation": "linear", "use_bias": false}}, {"name": "conv4_block19_2_bn", "class_name": "BatchNormalization", "inbound_nodes": [[["conv4_block19_2_conv", 0, 0, {}]]], "config": {"scale": true, "trainable": true, "beta_constraint": null, "beta_initializer": {"config": {}, "class_name": "Zeros"}, "epsilon": 1.001e-05, "gamma_initializer": {"config": {}, "class_name": "Ones"}, "gamma_constraint": null, "axis": 3, "gamma_regularizer": null, "center": true, "moving_variance_initializer": {"config": {}, "class_name": "Ones"}, "moving_mean_initializer": {"config": {}, "class_name": "Zeros"}, "momentum": 0.99, "name": "conv4_block19_2_bn", "beta_regularizer": null}}, {"name": "conv4_block19_2_relu", "class_name": "Activation", "inbound_nodes": [[["conv4_block19_2_bn", 0, 0, {}]]], "config": {"name": "conv4_block19_2_relu", "trainable": true, "activation": "relu"}}, {"name": "conv4_block19_3_conv", "class_name": "Conv2D", "inbound_nodes": [[["conv4_block19_2_relu", 0, 0, {}]]], "config": {"strides": [1, 1], "trainable": true, "data_format": "channels_last", "bias_initializer": {"config": {}, "class_name": "Zeros"}, "bias_regularizer": null, "kernel_initializer": {"config": {"seed": null, "scale": 1.0, "distribution": "uniform", "mode": "fan_avg"}, "class_name": "VarianceScaling"}, "kernel_regularizer": null, "bias_constraint": null, "filters": 1024, "padding": "valid", "dilation_rate": [1, 1], "kernel_size": [1, 1], "name": "conv4_block19_3_conv", "activity_regularizer": null, "kernel_constraint": null, "activation": "linear", "use_bias": true}}, {"name": "conv4_block19_out", "class_name": "Add", "inbound_nodes": [[["conv4_block18_out", 0, 0, {}], ["conv4_block19_3_conv", 0, 0, {}]]], "config": {"name": "conv4_block19_out", "trainable": true}}, {"name": "conv4_block20_preact_bn", "class_name": "BatchNormalization", "inbound_nodes": [[["conv4_block19_out", 0, 0, {}]]], "config": {"scale": true, "trainable": true, "beta_constraint": null, "beta_initializer": {"config": {}, "class_name": "Zeros"}, "epsilon": 1.001e-05, "gamma_initializer": {"config": {}, "class_name": "Ones"}, "gamma_constraint": null, "axis": 3, "gamma_regularizer": null, "center": true, "moving_variance_initializer": {"config": {}, "class_name": "Ones"}, "moving_mean_initializer": {"config": {}, "class_name": "Zeros"}, "momentum": 0.99, "name": "conv4_block20_preact_bn", "beta_regularizer": null}}, {"name": "conv4_block20_preact_relu", "class_name": "Activation", "inbound_nodes": [[["conv4_block20_preact_bn", 0, 0, {}]]], "config": {"name": "conv4_block20_preact_relu", "trainable": true, "activation": "relu"}}, {"name": "conv4_block20_1_conv", "class_name": "Conv2D", "inbound_nodes": [[["conv4_block20_preact_relu", 0, 0, {}]]], "config": {"strides": [1, 1], "trainable": true, "data_format": "channels_last", "bias_initializer": {"config": {}, "class_name": "Zeros"}, "bias_regularizer": null, "kernel_initializer": {"config": {"seed": null, "scale": 1.0, "distribution": "uniform", "mode": "fan_avg"}, "class_name": "VarianceScaling"}, "kernel_regularizer": null, "bias_constraint": null, "filters": 256, "padding": "valid", "dilation_rate": [1, 1], "kernel_size": [1, 1], "name": "conv4_block20_1_conv", "activity_regularizer": null, "kernel_constraint": null, "activation": "linear", "use_bias": false}}, {"name": "conv4_block20_1_bn", "class_name": "BatchNormalization", "inbound_nodes": [[["conv4_block20_1_conv", 0, 0, {}]]], "config": {"scale": true, "trainable": true, "beta_constraint": null, "beta_initializer": {"config": {}, "class_name": "Zeros"}, "epsilon": 1.001e-05, "gamma_initializer": {"config": {}, "class_name": "Ones"}, "gamma_constraint": null, "axis": 3, "gamma_regularizer": null, "center": true, "moving_variance_initializer": {"config": {}, "class_name": "Ones"}, "moving_mean_initializer": {"config": {}, "class_name": "Zeros"}, "momentum": 0.99, "name": "conv4_block20_1_bn", "beta_regularizer": null}}, {"name": "conv4_block20_1_relu", "class_name": "Activation", "inbound_nodes": [[["conv4_block20_1_bn", 0, 0, {}]]], "config": {"name": "conv4_block20_1_relu", "trainable": true, "activation": "relu"}}, {"name": "conv4_block20_2_pad", "class_name": "ZeroPadding2D", "inbound_nodes": [[["conv4_block20_1_relu", 0, 0, {}]]], "config": {"padding": [[1, 1], [1, 1]], "name": "conv4_block20_2_pad", "trainable": true, "data_format": "channels_last"}}, {"name": "conv4_block20_2_conv", "class_name": "Conv2D", "inbound_nodes": [[["conv4_block20_2_pad", 0, 0, {}]]], "config": {"strides": [1, 1], "trainable": true, "data_format": "channels_last", "bias_initializer": {"config": {}, "class_name": "Zeros"}, "bias_regularizer": null, "kernel_initializer": {"config": {"seed": null, "scale": 1.0, "distribution": "uniform", "mode": "fan_avg"}, "class_name": "VarianceScaling"}, "kernel_regularizer": null, "bias_constraint": null, "filters": 256, "padding": "valid", "dilation_rate": [1, 1], "kernel_size": [3, 3], "name": "conv4_block20_2_conv", "activity_regularizer": null, "kernel_constraint": null, "activation": "linear", "use_bias": false}}, {"name": "conv4_block20_2_bn", "class_name": "BatchNormalization", "inbound_nodes": [[["conv4_block20_2_conv", 0, 0, {}]]], "config": {"scale": true, "trainable": true, "beta_constraint": null, "beta_initializer": {"config": {}, "class_name": "Zeros"}, "epsilon": 1.001e-05, "gamma_initializer": {"config": {}, "class_name": "Ones"}, "gamma_constraint": null, "axis": 3, "gamma_regularizer": null, "center": true, "moving_variance_initializer": {"config": {}, "class_name": "Ones"}, "moving_mean_initializer": {"config": {}, "class_name": "Zeros"}, "momentum": 0.99, "name": "conv4_block20_2_bn", "beta_regularizer": null}}, {"name": "conv4_block20_2_relu", "class_name": "Activation", "inbound_nodes": [[["conv4_block20_2_bn", 0, 0, {}]]], "config": {"name": "conv4_block20_2_relu", "trainable": true, "activation": "relu"}}, {"name": "conv4_block20_3_conv", "class_name": "Conv2D", "inbound_nodes": [[["conv4_block20_2_relu", 0, 0, {}]]], "config": {"strides": [1, 1], "trainable": true, "data_format": "channels_last", "bias_initializer": {"config": {}, "class_name": "Zeros"}, "bias_regularizer": null, "kernel_initializer": {"config": {"seed": null, "scale": 1.0, "distribution": "uniform", "mode": "fan_avg"}, "class_name": "VarianceScaling"}, "kernel_regularizer": null, "bias_constraint": null, "filters": 1024, "padding": "valid", "dilation_rate": [1, 1], "kernel_size": [1, 1], "name": "conv4_block20_3_conv", "activity_regularizer": null, "kernel_constraint": null, "activation": "linear", "use_bias": true}}, {"name": "conv4_block20_out", "class_name": "Add", "inbound_nodes": [[["conv4_block19_out", 0, 0, {}], ["conv4_block20_3_conv", 0, 0, {}]]], "config": {"name": "conv4_block20_out", "trainable": true}}, {"name": "conv4_block21_preact_bn", "class_name": "BatchNormalization", "inbound_nodes": [[["conv4_block20_out", 0, 0, {}]]], "config": {"scale": true, "trainable": true, "beta_constraint": null, "beta_initializer": {"config": {}, "class_name": "Zeros"}, "epsilon": 1.001e-05, "gamma_initializer": {"config": {}, "class_name": "Ones"}, "gamma_constraint": null, "axis": 3, "gamma_regularizer": null, "center": true, "moving_variance_initializer": {"config": {}, "class_name": "Ones"}, "moving_mean_initializer": {"config": {}, "class_name": "Zeros"}, "momentum": 0.99, "name": "conv4_block21_preact_bn", "beta_regularizer": null}}, {"name": "conv4_block21_preact_relu", "class_name": "Activation", "inbound_nodes": [[["conv4_block21_preact_bn", 0, 0, {}]]], "config": {"name": "conv4_block21_preact_relu", "trainable": true, "activation": "relu"}}, {"name": "conv4_block21_1_conv", "class_name": "Conv2D", "inbound_nodes": [[["conv4_block21_preact_relu", 0, 0, {}]]], "config": {"strides": [1, 1], "trainable": true, "data_format": "channels_last", "bias_initializer": {"config": {}, "class_name": "Zeros"}, "bias_regularizer": null, "kernel_initializer": {"config": {"seed": null, "scale": 1.0, "distribution": "uniform", "mode": "fan_avg"}, "class_name": "VarianceScaling"}, "kernel_regularizer": null, "bias_constraint": null, "filters": 256, "padding": "valid", "dilation_rate": [1, 1], "kernel_size": [1, 1], "name": "conv4_block21_1_conv", "activity_regularizer": null, "kernel_constraint": null, "activation": "linear", "use_bias": false}}, {"name": "conv4_block21_1_bn", "class_name": "BatchNormalization", "inbound_nodes": [[["conv4_block21_1_conv", 0, 0, {}]]], "config": {"scale": true, "trainable": true, "beta_constraint": null, "beta_initializer": {"config": {}, "class_name": "Zeros"}, "epsilon": 1.001e-05, "gamma_initializer": {"config": {}, "class_name": "Ones"}, "gamma_constraint": null, "axis": 3, "gamma_regularizer": null, "center": true, "moving_variance_initializer": {"config": {}, "class_name": "Ones"}, "moving_mean_initializer": {"config": {}, "class_name": "Zeros"}, "momentum": 0.99, "name": "conv4_block21_1_bn", "beta_regularizer": null}}, {"name": "conv4_block21_1_relu", "class_name": "Activation", "inbound_nodes": [[["conv4_block21_1_bn", 0, 0, {}]]], "config": {"name": "conv4_block21_1_relu", "trainable": true, "activation": "relu"}}, {"name": "conv4_block21_2_pad", "class_name": "ZeroPadding2D", "inbound_nodes": [[["conv4_block21_1_relu", 0, 0, {}]]], "config": {"padding": [[1, 1], [1, 1]], "name": "conv4_block21_2_pad", "trainable": true, "data_format": "channels_last"}}, {"name": "conv4_block21_2_conv", "class_name": "Conv2D", "inbound_nodes": [[["conv4_block21_2_pad", 0, 0, {}]]], "config": {"strides": [1, 1], "trainable": true, "data_format": "channels_last", "bias_initializer": {"config": {}, "class_name": "Zeros"}, "bias_regularizer": null, "kernel_initializer": {"config": {"seed": null, "scale": 1.0, "distribution": "uniform", "mode": "fan_avg"}, "class_name": "VarianceScaling"}, "kernel_regularizer": null, "bias_constraint": null, "filters": 256, "padding": "valid", "dilation_rate": [1, 1], "kernel_size": [3, 3], "name": "conv4_block21_2_conv", "activity_regularizer": null, "kernel_constraint": null, "activation": "linear", "use_bias": false}}, {"name": "conv4_block21_2_bn", "class_name": "BatchNormalization", "inbound_nodes": [[["conv4_block21_2_conv", 0, 0, {}]]], "config": {"scale": true, "trainable": true, "beta_constraint": null, "beta_initializer": {"config": {}, "class_name": "Zeros"}, "epsilon": 1.001e-05, "gamma_initializer": {"config": {}, "class_name": "Ones"}, "gamma_constraint": null, "axis": 3, "gamma_regularizer": null, "center": true, "moving_variance_initializer": {"config": {}, "class_name": "Ones"}, "moving_mean_initializer": {"config": {}, "class_name": "Zeros"}, "momentum": 0.99, "name": "conv4_block21_2_bn", "beta_regularizer": null}}, {"name": "conv4_block21_2_relu", "class_name": "Activation", "inbound_nodes": [[["conv4_block21_2_bn", 0, 0, {}]]], "config": {"name": "conv4_block21_2_relu", "trainable": true, "activation": "relu"}}, {"name": "conv4_block21_3_conv", "class_name": "Conv2D", "inbound_nodes": [[["conv4_block21_2_relu", 0, 0, {}]]], "config": {"strides": [1, 1], "trainable": true, "data_format": "channels_last", "bias_initializer": {"config": {}, "class_name": "Zeros"}, "bias_regularizer": null, "kernel_initializer": {"config": {"seed": null, "scale": 1.0, "distribution": "uniform", "mode": "fan_avg"}, "class_name": "VarianceScaling"}, "kernel_regularizer": null, "bias_constraint": null, "filters": 1024, "padding": "valid", "dilation_rate": [1, 1], "kernel_size": [1, 1], "name": "conv4_block21_3_conv", "activity_regularizer": null, "kernel_constraint": null, "activation": "linear", "use_bias": true}}, {"name": "conv4_block21_out", "class_name": "Add", "inbound_nodes": [[["conv4_block20_out", 0, 0, {}], ["conv4_block21_3_conv", 0, 0, {}]]], "config": {"name": "conv4_block21_out", "trainable": true}}, {"name": "conv4_block22_preact_bn", "class_name": "BatchNormalization", "inbound_nodes": [[["conv4_block21_out", 0, 0, {}]]], "config": {"scale": true, "trainable": true, "beta_constraint": null, "beta_initializer": {"config": {}, "class_name": "Zeros"}, "epsilon": 1.001e-05, "gamma_initializer": {"config": {}, "class_name": "Ones"}, "gamma_constraint": null, "axis": 3, "gamma_regularizer": null, "center": true, "moving_variance_initializer": {"config": {}, "class_name": "Ones"}, "moving_mean_initializer": {"config": {}, "class_name": "Zeros"}, "momentum": 0.99, "name": "conv4_block22_preact_bn", "beta_regularizer": null}}, {"name": "conv4_block22_preact_relu", "class_name": "Activation", "inbound_nodes": [[["conv4_block22_preact_bn", 0, 0, {}]]], "config": {"name": "conv4_block22_preact_relu", "trainable": true, "activation": "relu"}}, {"name": "conv4_block22_1_conv", "class_name": "Conv2D", "inbound_nodes": [[["conv4_block22_preact_relu", 0, 0, {}]]], "config": {"strides": [1, 1], "trainable": true, "data_format": "channels_last", "bias_initializer": {"config": {}, "class_name": "Zeros"}, "bias_regularizer": null, "kernel_initializer": {"config": {"seed": null, "scale": 1.0, "distribution": "uniform", "mode": "fan_avg"}, "class_name": "VarianceScaling"}, "kernel_regularizer": null, "bias_constraint": null, "filters": 256, "padding": "valid", "dilation_rate": [1, 1], "kernel_size": [1, 1], "name": "conv4_block22_1_conv", "activity_regularizer": null, "kernel_constraint": null, "activation": "linear", "use_bias": false}}, {"name": "conv4_block22_1_bn", "class_name": "BatchNormalization", "inbound_nodes": [[["conv4_block22_1_conv", 0, 0, {}]]], "config": {"scale": true, "trainable": true, "beta_constraint": null, "beta_initializer": {"config": {}, "class_name": "Zeros"}, "epsilon": 1.001e-05, "gamma_initializer": {"config": {}, "class_name": "Ones"}, "gamma_constraint": null, "axis": 3, "gamma_regularizer": null, "center": true, "moving_variance_initializer": {"config": {}, "class_name": "Ones"}, "moving_mean_initializer": {"config": {}, "class_name": "Zeros"}, "momentum": 0.99, "name": "conv4_block22_1_bn", "beta_regularizer": null}}, {"name": "conv4_block22_1_relu", "class_name": "Activation", "inbound_nodes": [[["conv4_block22_1_bn", 0, 0, {}]]], "config": {"name": "conv4_block22_1_relu", "trainable": true, "activation": "relu"}}, {"name": "conv4_block22_2_pad", "class_name": "ZeroPadding2D", "inbound_nodes": [[["conv4_block22_1_relu", 0, 0, {}]]], "config": {"padding": [[1, 1], [1, 1]], "name": "conv4_block22_2_pad", "trainable": true, "data_format": "channels_last"}}, {"name": "conv4_block22_2_conv", "class_name": "Conv2D", "inbound_nodes": [[["conv4_block22_2_pad", 0, 0, {}]]], "config": {"strides": [1, 1], "trainable": true, "data_format": "channels_last", "bias_initializer": {"config": {}, "class_name": "Zeros"}, "bias_regularizer": null, "kernel_initializer": {"config": {"seed": null, "scale": 1.0, "distribution": "uniform", "mode": "fan_avg"}, "class_name": "VarianceScaling"}, "kernel_regularizer": null, "bias_constraint": null, "filters": 256, "padding": "valid", "dilation_rate": [1, 1], "kernel_size": [3, 3], "name": "conv4_block22_2_conv", "activity_regularizer": null, "kernel_constraint": null, "activation": "linear", "use_bias": false}}, {"name": "conv4_block22_2_bn", "class_name": "BatchNormalization", "inbound_nodes": [[["conv4_block22_2_conv", 0, 0, {}]]], "config": {"scale": true, "trainable": true, "beta_constraint": null, "beta_initializer": {"config": {}, "class_name": "Zeros"}, "epsilon": 1.001e-05, "gamma_initializer": {"config": {}, "class_name": "Ones"}, "gamma_constraint": null, "axis": 3, "gamma_regularizer": null, "center": true, "moving_variance_initializer": {"config": {}, "class_name": "Ones"}, "moving_mean_initializer": {"config": {}, "class_name": "Zeros"}, "momentum": 0.99, "name": "conv4_block22_2_bn", "beta_regularizer": null}}, {"name": "conv4_block22_2_relu", "class_name": "Activation", "inbound_nodes": [[["conv4_block22_2_bn", 0, 0, {}]]], "config": {"name": "conv4_block22_2_relu", "trainable": true, "activation": "relu"}}, {"name": "conv4_block22_3_conv", "class_name": "Conv2D", "inbound_nodes": [[["conv4_block22_2_relu", 0, 0, {}]]], "config": {"strides": [1, 1], "trainable": true, "data_format": "channels_last", "bias_initializer": {"config": {}, "class_name": "Zeros"}, "bias_regularizer": null, "kernel_initializer": {"config": {"seed": null, "scale": 1.0, "distribution": "uniform", "mode": "fan_avg"}, "class_name": "VarianceScaling"}, "kernel_regularizer": null, "bias_constraint": null, "filters": 1024, "padding": "valid", "dilation_rate": [1, 1], "kernel_size": [1, 1], "name": "conv4_block22_3_conv", "activity_regularizer": null, "kernel_constraint": null, "activation": "linear", "use_bias": true}}, {"name": "conv4_block22_out", "class_name": "Add", "inbound_nodes": [[["conv4_block21_out", 0, 0, {}], ["conv4_block22_3_conv", 0, 0, {}]]], "config": {"name": "conv4_block22_out", "trainable": true}}, {"name": "conv4_block23_preact_bn", "class_name": "BatchNormalization", "inbound_nodes": [[["conv4_block22_out", 0, 0, {}]]], "config": {"scale": true, "trainable": true, "beta_constraint": null, "beta_initializer": {"config": {}, "class_name": "Zeros"}, "epsilon": 1.001e-05, "gamma_initializer": {"config": {}, "class_name": "Ones"}, "gamma_constraint": null, "axis": 3, "gamma_regularizer": null, "center": true, "moving_variance_initializer": {"config": {}, "class_name": "Ones"}, "moving_mean_initializer": {"config": {}, "class_name": "Zeros"}, "momentum": 0.99, "name": "conv4_block23_preact_bn", "beta_regularizer": null}}, {"name": "conv4_block23_preact_relu", "class_name": "Activation", "inbound_nodes": [[["conv4_block23_preact_bn", 0, 0, {}]]], "config": {"name": "conv4_block23_preact_relu", "trainable": true, "activation": "relu"}}, {"name": "conv4_block23_1_conv", "class_name": "Conv2D", "inbound_nodes": [[["conv4_block23_preact_relu", 0, 0, {}]]], "config": {"strides": [1, 1], "trainable": true, "data_format": "channels_last", "bias_initializer": {"config": {}, "class_name": "Zeros"}, "bias_regularizer": null, "kernel_initializer": {"config": {"seed": null, "scale": 1.0, "distribution": "uniform", "mode": "fan_avg"}, "class_name": "VarianceScaling"}, "kernel_regularizer": null, "bias_constraint": null, "filters": 256, "padding": "valid", "dilation_rate": [1, 1], "kernel_size": [1, 1], "name": "conv4_block23_1_conv", "activity_regularizer": null, "kernel_constraint": null, "activation": "linear", "use_bias": false}}, {"name": "conv4_block23_1_bn", "class_name": "BatchNormalization", "inbound_nodes": [[["conv4_block23_1_conv", 0, 0, {}]]], "config": {"scale": true, "trainable": true, "beta_constraint": null, "beta_initializer": {"config": {}, "class_name": "Zeros"}, "epsilon": 1.001e-05, "gamma_initializer": {"config": {}, "class_name": "Ones"}, "gamma_constraint": null, "axis": 3, "gamma_regularizer": null, "center": true, "moving_variance_initializer": {"config": {}, "class_name": "Ones"}, "moving_mean_initializer": {"config": {}, "class_name": "Zeros"}, "momentum": 0.99, "name": "conv4_block23_1_bn", "beta_regularizer": null}}, {"name": "conv4_block23_1_relu", "class_name": "Activation", "inbound_nodes": [[["conv4_block23_1_bn", 0, 0, {}]]], "config": {"name": "conv4_block23_1_relu", "trainable": true, "activation": "relu"}}, {"name": "conv4_block23_2_pad", "class_name": "ZeroPadding2D", "inbound_nodes": [[["conv4_block23_1_relu", 0, 0, {}]]], "config": {"padding": [[1, 1], [1, 1]], "name": "conv4_block23_2_pad", "trainable": true, "data_format": "channels_last"}}, {"name": "conv4_block23_2_conv", "class_name": "Conv2D", "inbound_nodes": [[["conv4_block23_2_pad", 0, 0, {}]]], "config": {"strides": [2, 2], "trainable": true, "data_format": "channels_last", "bias_initializer": {"config": {}, "class_name": "Zeros"}, "bias_regularizer": null, "kernel_initializer": {"config": {"seed": null, "scale": 1.0, "distribution": "uniform", "mode": "fan_avg"}, "class_name": "VarianceScaling"}, "kernel_regularizer": null, "bias_constraint": null, "filters": 256, "padding": "valid", "dilation_rate": [1, 1], "kernel_size": [3, 3], "name": "conv4_block23_2_conv", "activity_regularizer": null, "kernel_constraint": null, "activation": "linear", "use_bias": false}}, {"name": "conv4_block23_2_bn", "class_name": "BatchNormalization", "inbound_nodes": [[["conv4_block23_2_conv", 0, 0, {}]]], "config": {"scale": true, "trainable": true, "beta_constraint": null, "beta_initializer": {"config": {}, "class_name": "Zeros"}, "epsilon": 1.001e-05, "gamma_initializer": {"config": {}, "class_name": "Ones"}, "gamma_constraint": null, "axis": 3, "gamma_regularizer": null, "center": true, "moving_variance_initializer": {"config": {}, "class_name": "Ones"}, "moving_mean_initializer": {"config": {}, "class_name": "Zeros"}, "momentum": 0.99, "name": "conv4_block23_2_bn", "beta_regularizer": null}}, {"name": "conv4_block23_2_relu", "class_name": "Activation", "inbound_nodes": [[["conv4_block23_2_bn", 0, 0, {}]]], "config": {"name": "conv4_block23_2_relu", "trainable": true, "activation": "relu"}}, {"name": "max_pooling2d_3", "class_name": "MaxPooling2D", "inbound_nodes": [[["conv4_block22_out", 0, 0, {}]]], "config": {"strides": [2, 2], "trainable": true, "data_format": "channels_last", "pool_size": [1, 1], "padding": "valid", "name": "max_pooling2d_3"}}, {"name": "conv4_block23_3_conv", "class_name": "Conv2D", "inbound_nodes": [[["conv4_block23_2_relu", 0, 0, {}]]], "config": {"strides": [1, 1], "trainable": true, "data_format": "channels_last", "bias_initializer": {"config": {}, "class_name": "Zeros"}, "bias_regularizer": null, "kernel_initializer": {"config": {"seed": null, "scale": 1.0, "distribution": "uniform", "mode": "fan_avg"}, "class_name": "VarianceScaling"}, "kernel_regularizer": null, "bias_constraint": null, "filters": 1024, "padding": "valid", "dilation_rate": [1, 1], "kernel_size": [1, 1], "name": "conv4_block23_3_conv", "activity_regularizer": null, "kernel_constraint": null, "activation": "linear", "use_bias": true}}, {"name": "conv4_block23_out", "class_name": "Add", "inbound_nodes": [[["max_pooling2d_3", 0, 0, {}], ["conv4_block23_3_conv", 0, 0, {}]]], "config": {"name": "conv4_block23_out", "trainable": true}}, {"name": "conv5_block1_preact_bn", "class_name": "BatchNormalization", "inbound_nodes": [[["conv4_block23_out", 0, 0, {}]]], "config": {"scale": true, "trainable": true, "beta_constraint": null, "beta_initializer": {"config": {}, "class_name": "Zeros"}, "epsilon": 1.001e-05, "gamma_initializer": {"config": {}, "class_name": "Ones"}, "gamma_constraint": null, "axis": 3, "gamma_regularizer": null, "center": true, "moving_variance_initializer": {"config": {}, "class_name": "Ones"}, "moving_mean_initializer": {"config": {}, "class_name": "Zeros"}, "momentum": 0.99, "name": "conv5_block1_preact_bn", "beta_regularizer": null}}, {"name": "conv5_block1_preact_relu", "class_name": "Activation", "inbound_nodes": [[["conv5_block1_preact_bn", 0, 0, {}]]], "config": {"name": "conv5_block1_preact_relu", "trainable": true, "activation": "relu"}}, {"name": "conv5_block1_1_conv", "class_name": "Conv2D", "inbound_nodes": [[["conv5_block1_preact_relu", 0, 0, {}]]], "config": {"strides": [1, 1], "trainable": true, "data_format": "channels_last", "bias_initializer": {"config": {}, "class_name": "Zeros"}, "bias_regularizer": null, "kernel_initializer": {"config": {"seed": null, "scale": 1.0, "distribution": "uniform", "mode": "fan_avg"}, "class_name": "VarianceScaling"}, "kernel_regularizer": null, "bias_constraint": null, "filters": 512, "padding": "valid", "dilation_rate": [1, 1], "kernel_size": [1, 1], "name": "conv5_block1_1_conv", "activity_regularizer": null, "kernel_constraint": null, "activation": "linear", "use_bias": false}}, {"name": "conv5_block1_1_bn", "class_name": "BatchNormalization", "inbound_nodes": [[["conv5_block1_1_conv", 0, 0, {}]]], "config": {"scale": true, "trainable": true, "beta_constraint": null, "beta_initializer": {"config": {}, "class_name": "Zeros"}, "epsilon": 1.001e-05, "gamma_initializer": {"config": {}, "class_name": "Ones"}, "gamma_constraint": null, "axis": 3, "gamma_regularizer": null, "center": true, "moving_variance_initializer": {"config": {}, "class_name": "Ones"}, "moving_mean_initializer": {"config": {}, "class_name": "Zeros"}, "momentum": 0.99, "name": "conv5_block1_1_bn", "beta_regularizer": null}}, {"name": "conv5_block1_1_relu", "class_name": "Activation", "inbound_nodes": [[["conv5_block1_1_bn", 0, 0, {}]]], "config": {"name": "conv5_block1_1_relu", "trainable": true, "activation": "relu"}}, {"name": "conv5_block1_2_pad", "class_name": "ZeroPadding2D", "inbound_nodes": [[["conv5_block1_1_relu", 0, 0, {}]]], "config": {"padding": [[1, 1], [1, 1]], "name": "conv5_block1_2_pad", "trainable": true, "data_format": "channels_last"}}, {"name": "conv5_block1_2_conv", "class_name": "Conv2D", "inbound_nodes": [[["conv5_block1_2_pad", 0, 0, {}]]], "config": {"strides": [1, 1], "trainable": true, "data_format": "channels_last", "bias_initializer": {"config": {}, "class_name": "Zeros"}, "bias_regularizer": null, "kernel_initializer": {"config": {"seed": null, "scale": 1.0, "distribution": "uniform", "mode": "fan_avg"}, "class_name": "VarianceScaling"}, "kernel_regularizer": null, "bias_constraint": null, "filters": 512, "padding": "valid", "dilation_rate": [1, 1], "kernel_size": [3, 3], "name": "conv5_block1_2_conv", "activity_regularizer": null, "kernel_constraint": null, "activation": "linear", "use_bias": false}}, {"name": "conv5_block1_2_bn", "class_name": "BatchNormalization", "inbound_nodes": [[["conv5_block1_2_conv", 0, 0, {}]]], "config": {"scale": true, "trainable": true, "beta_constraint": null, "beta_initializer": {"config": {}, "class_name": "Zeros"}, "epsilon": 1.001e-05, "gamma_initializer": {"config": {}, "class_name": "Ones"}, "gamma_constraint": null, "axis": 3, "gamma_regularizer": null, "center": true, "moving_variance_initializer": {"config": {}, "class_name": "Ones"}, "moving_mean_initializer": {"config": {}, "class_name": "Zeros"}, "momentum": 0.99, "name": "conv5_block1_2_bn", "beta_regularizer": null}}, {"name": "conv5_block1_2_relu", "class_name": "Activation", "inbound_nodes": [[["conv5_block1_2_bn", 0, 0, {}]]], "config": {"name": "conv5_block1_2_relu", "trainable": true, "activation": "relu"}}, {"name": "conv5_block1_0_conv", "class_name": "Conv2D", "inbound_nodes": [[["conv5_block1_preact_relu", 0, 0, {}]]], "config": {"strides": [1, 1], "trainable": true, "data_format": "channels_last", "bias_initializer": {"config": {}, "class_name": "Zeros"}, "bias_regularizer": null, "kernel_initializer": {"config": {"seed": null, "scale": 1.0, "distribution": "uniform", "mode": "fan_avg"}, "class_name": "VarianceScaling"}, "kernel_regularizer": null, "bias_constraint": null, "filters": 2048, "padding": "valid", "dilation_rate": [1, 1], "kernel_size": [1, 1], "name": "conv5_block1_0_conv", "activity_regularizer": null, "kernel_constraint": null, "activation": "linear", "use_bias": true}}, {"name": "conv5_block1_3_conv", "class_name": "Conv2D", "inbound_nodes": [[["conv5_block1_2_relu", 0, 0, {}]]], "config": {"strides": [1, 1], "trainable": true, "data_format": "channels_last", "bias_initializer": {"config": {}, "class_name": "Zeros"}, "bias_regularizer": null, "kernel_initializer": {"config": {"seed": null, "scale": 1.0, "distribution": "uniform", "mode": "fan_avg"}, "class_name": "VarianceScaling"}, "kernel_regularizer": null, "bias_constraint": null, "filters": 2048, "padding": "valid", "dilation_rate": [1, 1], "kernel_size": [1, 1], "name": "conv5_block1_3_conv", "activity_regularizer": null, "kernel_constraint": null, "activation": "linear", "use_bias": true}}, {"name": "conv5_block1_out", "class_name": "Add", "inbound_nodes": [[["conv5_block1_0_conv", 0, 0, {}], ["conv5_block1_3_conv", 0, 0, {}]]], "config": {"name": "conv5_block1_out", "trainable": true}}, {"name": "conv5_block2_preact_bn", "class_name": "BatchNormalization", "inbound_nodes": [[["conv5_block1_out", 0, 0, {}]]], "config": {"scale": true, "trainable": true, "beta_constraint": null, "beta_initializer": {"config": {}, "class_name": "Zeros"}, "epsilon": 1.001e-05, "gamma_initializer": {"config": {}, "class_name": "Ones"}, "gamma_constraint": null, "axis": 3, "gamma_regularizer": null, "center": true, "moving_variance_initializer": {"config": {}, "class_name": "Ones"}, "moving_mean_initializer": {"config": {}, "class_name": "Zeros"}, "momentum": 0.99, "name": "conv5_block2_preact_bn", "beta_regularizer": null}}, {"name": "conv5_block2_preact_relu", "class_name": "Activation", "inbound_nodes": [[["conv5_block2_preact_bn", 0, 0, {}]]], "config": {"name": "conv5_block2_preact_relu", "trainable": true, "activation": "relu"}}, {"name": "conv5_block2_1_conv", "class_name": "Conv2D", "inbound_nodes": [[["conv5_block2_preact_relu", 0, 0, {}]]], "config": {"strides": [1, 1], "trainable": true, "data_format": "channels_last", "bias_initializer": {"config": {}, "class_name": "Zeros"}, "bias_regularizer": null, "kernel_initializer": {"config": {"seed": null, "scale": 1.0, "distribution": "uniform", "mode": "fan_avg"}, "class_name": "VarianceScaling"}, "kernel_regularizer": null, "bias_constraint": null, "filters": 512, "padding": "valid", "dilation_rate": [1, 1], "kernel_size": [1, 1], "name": "conv5_block2_1_conv", "activity_regularizer": null, "kernel_constraint": null, "activation": "linear", "use_bias": false}}, {"name": "conv5_block2_1_bn", "class_name": "BatchNormalization", "inbound_nodes": [[["conv5_block2_1_conv", 0, 0, {}]]], "config": {"scale": true, "trainable": true, "beta_constraint": null, "beta_initializer": {"config": {}, "class_name": "Zeros"}, "epsilon": 1.001e-05, "gamma_initializer": {"config": {}, "class_name": "Ones"}, "gamma_constraint": null, "axis": 3, "gamma_regularizer": null, "center": true, "moving_variance_initializer": {"config": {}, "class_name": "Ones"}, "moving_mean_initializer": {"config": {}, "class_name": "Zeros"}, "momentum": 0.99, "name": "conv5_block2_1_bn", "beta_regularizer": null}}, {"name": "conv5_block2_1_relu", "class_name": "Activation", "inbound_nodes": [[["conv5_block2_1_bn", 0, 0, {}]]], "config": {"name": "conv5_block2_1_relu", "trainable": true, "activation": "relu"}}, {"name": "conv5_block2_2_pad", "class_name": "ZeroPadding2D", "inbound_nodes": [[["conv5_block2_1_relu", 0, 0, {}]]], "config": {"padding": [[1, 1], [1, 1]], "name": "conv5_block2_2_pad", "trainable": true, "data_format": "channels_last"}}, {"name": "conv5_block2_2_conv", "class_name": "Conv2D", "inbound_nodes": [[["conv5_block2_2_pad", 0, 0, {}]]], "config": {"strides": [1, 1], "trainable": true, "data_format": "channels_last", "bias_initializer": {"config": {}, "class_name": "Zeros"}, "bias_regularizer": null, "kernel_initializer": {"config": {"seed": null, "scale": 1.0, "distribution": "uniform", "mode": "fan_avg"}, "class_name": "VarianceScaling"}, "kernel_regularizer": null, "bias_constraint": null, "filters": 512, "padding": "valid", "dilation_rate": [1, 1], "kernel_size": [3, 3], "name": "conv5_block2_2_conv", "activity_regularizer": null, "kernel_constraint": null, "activation": "linear", "use_bias": false}}, {"name": "conv5_block2_2_bn", "class_name": "BatchNormalization", "inbound_nodes": [[["conv5_block2_2_conv", 0, 0, {}]]], "config": {"scale": true, "trainable": true, "beta_constraint": null, "beta_initializer": {"config": {}, "class_name": "Zeros"}, "epsilon": 1.001e-05, "gamma_initializer": {"config": {}, "class_name": "Ones"}, "gamma_constraint": null, "axis": 3, "gamma_regularizer": null, "center": true, "moving_variance_initializer": {"config": {}, "class_name": "Ones"}, "moving_mean_initializer": {"config": {}, "class_name": "Zeros"}, "momentum": 0.99, "name": "conv5_block2_2_bn", "beta_regularizer": null}}, {"name": "conv5_block2_2_relu", "class_name": "Activation", "inbound_nodes": [[["conv5_block2_2_bn", 0, 0, {}]]], "config": {"name": "conv5_block2_2_relu", "trainable": true, "activation": "relu"}}, {"name": "conv5_block2_3_conv", "class_name": "Conv2D", "inbound_nodes": [[["conv5_block2_2_relu", 0, 0, {}]]], "config": {"strides": [1, 1], "trainable": true, "data_format": "channels_last", "bias_initializer": {"config": {}, "class_name": "Zeros"}, "bias_regularizer": null, "kernel_initializer": {"config": {"seed": null, "scale": 1.0, "distribution": "uniform", "mode": "fan_avg"}, "class_name": "VarianceScaling"}, "kernel_regularizer": null, "bias_constraint": null, "filters": 2048, "padding": "valid", "dilation_rate": [1, 1], "kernel_size": [1, 1], "name": "conv5_block2_3_conv", "activity_regularizer": null, "kernel_constraint": null, "activation": "linear", "use_bias": true}}, {"name": "conv5_block2_out", "class_name": "Add", "inbound_nodes": [[["conv5_block1_out", 0, 0, {}], ["conv5_block2_3_conv", 0, 0, {}]]], "config": {"name": "conv5_block2_out", "trainable": true}}, {"name": "conv5_block3_preact_bn", "class_name": "BatchNormalization", "inbound_nodes": [[["conv5_block2_out", 0, 0, {}]]], "config": {"scale": true, "trainable": true, "beta_constraint": null, "beta_initializer": {"config": {}, "class_name": "Zeros"}, "epsilon": 1.001e-05, "gamma_initializer": {"config": {}, "class_name": "Ones"}, "gamma_constraint": null, "axis": 3, "gamma_regularizer": null, "center": true, "moving_variance_initializer": {"config": {}, "class_name": "Ones"}, "moving_mean_initializer": {"config": {}, "class_name": "Zeros"}, "momentum": 0.99, "name": "conv5_block3_preact_bn", "beta_regularizer": null}}, {"name": "conv5_block3_preact_relu", "class_name": "Activation", "inbound_nodes": [[["conv5_block3_preact_bn", 0, 0, {}]]], "config": {"name": "conv5_block3_preact_relu", "trainable": true, "activation": "relu"}}, {"name": "conv5_block3_1_conv", "class_name": "Conv2D", "inbound_nodes": [[["conv5_block3_preact_relu", 0, 0, {}]]], "config": {"strides": [1, 1], "trainable": true, "data_format": "channels_last", "bias_initializer": {"config": {}, "class_name": "Zeros"}, "bias_regularizer": null, "kernel_initializer": {"config": {"seed": null, "scale": 1.0, "distribution": "uniform", "mode": "fan_avg"}, "class_name": "VarianceScaling"}, "kernel_regularizer": null, "bias_constraint": null, "filters": 512, "padding": "valid", "dilation_rate": [1, 1], "kernel_size": [1, 1], "name": "conv5_block3_1_conv", "activity_regularizer": null, "kernel_constraint": null, "activation": "linear", "use_bias": false}}, {"name": "conv5_block3_1_bn", "class_name": "BatchNormalization", "inbound_nodes": [[["conv5_block3_1_conv", 0, 0, {}]]], "config": {"scale": true, "trainable": true, "beta_constraint": null, "beta_initializer": {"config": {}, "class_name": "Zeros"}, "epsilon": 1.001e-05, "gamma_initializer": {"config": {}, "class_name": "Ones"}, "gamma_constraint": null, "axis": 3, "gamma_regularizer": null, "center": true, "moving_variance_initializer": {"config": {}, "class_name": "Ones"}, "moving_mean_initializer": {"config": {}, "class_name": "Zeros"}, "momentum": 0.99, "name": "conv5_block3_1_bn", "beta_regularizer": null}}, {"name": "conv5_block3_1_relu", "class_name": "Activation", "inbound_nodes": [[["conv5_block3_1_bn", 0, 0, {}]]], "config": {"name": "conv5_block3_1_relu", "trainable": true, "activation": "relu"}}, {"name": "conv5_block3_2_pad", "class_name": "ZeroPadding2D", "inbound_nodes": [[["conv5_block3_1_relu", 0, 0, {}]]], "config": {"padding": [[1, 1], [1, 1]], "name": "conv5_block3_2_pad", "trainable": true, "data_format": "channels_last"}}, {"name": "conv5_block3_2_conv", "class_name": "Conv2D", "inbound_nodes": [[["conv5_block3_2_pad", 0, 0, {}]]], "config": {"strides": [1, 1], "trainable": true, "data_format": "channels_last", "bias_initializer": {"config": {}, "class_name": "Zeros"}, "bias_regularizer": null, "kernel_initializer": {"config": {"seed": null, "scale": 1.0, "distribution": "uniform", "mode": "fan_avg"}, "class_name": "VarianceScaling"}, "kernel_regularizer": null, "bias_constraint": null, "filters": 512, "padding": "valid", "dilation_rate": [1, 1], "kernel_size": [3, 3], "name": "conv5_block3_2_conv", "activity_regularizer": null, "kernel_constraint": null, "activation": "linear", "use_bias": false}}, {"name": "conv5_block3_2_bn", "class_name": "BatchNormalization", "inbound_nodes": [[["conv5_block3_2_conv", 0, 0, {}]]], "config": {"scale": true, "trainable": true, "beta_constraint": null, "beta_initializer": {"config": {}, "class_name": "Zeros"}, "epsilon": 1.001e-05, "gamma_initializer": {"config": {}, "class_name": "Ones"}, "gamma_constraint": null, "axis": 3, "gamma_regularizer": null, "center": true, "moving_variance_initializer": {"config": {}, "class_name": "Ones"}, "moving_mean_initializer": {"config": {}, "class_name": "Zeros"}, "momentum": 0.99, "name": "conv5_block3_2_bn", "beta_regularizer": null}}, {"name": "conv5_block3_2_relu", "class_name": "Activation", "inbound_nodes": [[["conv5_block3_2_bn", 0, 0, {}]]], "config": {"name": "conv5_block3_2_relu", "trainable": true, "activation": "relu"}}, {"name": "conv5_block3_3_conv", "class_name": "Conv2D", "inbound_nodes": [[["conv5_block3_2_relu", 0, 0, {}]]], "config": {"strides": [1, 1], "trainable": true, "data_format": "channels_last", "bias_initializer": {"config": {}, "class_name": "Zeros"}, "bias_regularizer": null, "kernel_initializer": {"config": {"seed": null, "scale": 1.0, "distribution": "uniform", "mode": "fan_avg"}, "class_name": "VarianceScaling"}, "kernel_regularizer": null, "bias_constraint": null, "filters": 2048, "padding": "valid", "dilation_rate": [1, 1], "kernel_size": [1, 1], "name": "conv5_block3_3_conv", "activity_regularizer": null, "kernel_constraint": null, "activation": "linear", "use_bias": true}}, {"name": "conv5_block3_out", "class_name": "Add", "inbound_nodes": [[["conv5_block2_out", 0, 0, {}], ["conv5_block3_3_conv", 0, 0, {}]]], "config": {"name": "conv5_block3_out", "trainable": true}}, {"name": "post_bn", "class_name": "BatchNormalization", "inbound_nodes": [[["conv5_block3_out", 0, 0, {}]]], "config": {"scale": true, "trainable": true, "beta_constraint": null, "beta_initializer": {"config": {}, "class_name": "Zeros"}, "epsilon": 1.001e-05, "gamma_initializer": {"config": {}, "class_name": "Ones"}, "gamma_constraint": null, "axis": 3, "gamma_regularizer": null, "center": true, "moving_variance_initializer": {"config": {}, "class_name": "Ones"}, "moving_mean_initializer": {"config": {}, "class_name": "Zeros"}, "momentum": 0.99, "name": "post_bn", "beta_regularizer": null}}, {"name": "post_relu", "class_name": "Activation", "inbound_nodes": [[["post_bn", 0, 0, {}]]], "config": {"name": "post_relu", "trainable": true, "activation": "relu"}}, {"name": "bn_conv6_1_preact", "class_name": "BatchNormalization", "inbound_nodes": [[["post_relu", 0, 0, {}]]], "config": {"scale": true, "trainable": true, "beta_constraint": null, "beta_initializer": {"config": {}, "class_name": "Zeros"}, "epsilon": 0.001, "gamma_initializer": {"config": {}, "class_name": "Ones"}, "gamma_constraint": null, "axis": -1, "gamma_regularizer": null, "center": true, "moving_variance_initializer": {"config": {}, "class_name": "Ones"}, "moving_mean_initializer": {"config": {}, "class_name": "Zeros"}, "momentum": 0.99, "name": "bn_conv6_1_preact", "beta_regularizer": null}}, {"name": "activation_1", "class_name": "Activation", "inbound_nodes": [[["bn_conv6_1_preact", 0, 0, {}]]], "config": {"name": "activation_1", "trainable": true, "activation": "relu"}}, {"name": "res_conv6_1_a", "class_name": "Conv2D", "inbound_nodes": [[["activation_1", 0, 0, {}]]], "config": {"strides": [1, 1], "trainable": true, "data_format": "channels_last", "bias_initializer": {"config": {}, "class_name": "Zeros"}, "bias_regularizer": null, "kernel_initializer": {"config": {"seed": null, "scale": 2.0, "distribution": "normal", "mode": "fan_in"}, "class_name": "VarianceScaling"}, "kernel_regularizer": null, "bias_constraint": null, "filters": 512, "padding": "valid", "dilation_rate": [1, 1], "kernel_size": [1, 1], "name": "res_conv6_1_a", "activity_regularizer": null, "kernel_constraint": null, "activation": "linear", "use_bias": true}}, {"name": "bn_conv6_1_b", "class_name": "BatchNormalization", "inbound_nodes": [[["res_conv6_1_a", 0, 0, {}]]], "config": {"scale": true, "trainable": true, "beta_constraint": null, "beta_initializer": {"config": {}, "class_name": "Zeros"}, "epsilon": 0.001, "gamma_initializer": {"config": {}, "class_name": "Ones"}, "gamma_constraint": null, "axis": -1, "gamma_regularizer": null, "center": true, "moving_variance_initializer": {"config": {}, "class_name": "Ones"}, "moving_mean_initializer": {"config": {}, "class_name": "Zeros"}, "momentum": 0.99, "name": "bn_conv6_1_b", "beta_regularizer": null}}, {"name": "activation_2", "class_name": "Activation", "inbound_nodes": [[["bn_conv6_1_b", 0, 0, {}]]], "config": {"name": "activation_2", "trainable": true, "activation": "relu"}}, {"name": "res_conv6_1_b", "class_name": "Conv2D", "inbound_nodes": [[["activation_2", 0, 0, {}]]], "config": {"strides": [1, 1], "trainable": true, "data_format": "channels_last", "bias_initializer": {"config": {}, "class_name": "Zeros"}, "bias_regularizer": null, "kernel_initializer": {"config": {"seed": null, "scale": 2.0, "distribution": "normal", "mode": "fan_in"}, "class_name": "VarianceScaling"}, "kernel_regularizer": null, "bias_constraint": null, "filters": 512, "padding": "same", "dilation_rate": [1, 1], "kernel_size": [3, 3], "name": "res_conv6_1_b", "activity_regularizer": null, "kernel_constraint": null, "activation": "linear", "use_bias": true}}, {"name": "bn_conv6_1_c", "class_name": "BatchNormalization", "inbound_nodes": [[["res_conv6_1_b", 0, 0, {}]]], "config": {"scale": true, "trainable": true, "beta_constraint": null, "beta_initializer": {"config": {}, "class_name": "Zeros"}, "epsilon": 0.001, "gamma_initializer": {"config": {}, "class_name": "Ones"}, "gamma_constraint": null, "axis": -1, "gamma_regularizer": null, "center": true, "moving_variance_initializer": {"config": {}, "class_name": "Ones"}, "moving_mean_initializer": {"config": {}, "class_name": "Zeros"}, "momentum": 0.99, "name": "bn_conv6_1_c", "beta_regularizer": null}}, {"name": "activation_3", "class_name": "Activation", "inbound_nodes": [[["bn_conv6_1_c", 0, 0, {}]]], "config": {"name": "activation_3", "trainable": true, "activation": "relu"}}, {"name": "res_conv6_1_c", "class_name": "Conv2D", "inbound_nodes": [[["activation_3", 0, 0, {}]]], "config": {"strides": [1, 1], "trainable": true, "data_format": "channels_last", "bias_initializer": {"config": {}, "class_name": "Zeros"}, "bias_regularizer": null, "kernel_initializer": {"config": {"seed": null, "scale": 2.0, "distribution": "normal", "mode": "fan_in"}, "class_name": "VarianceScaling"}, "kernel_regularizer": null, "bias_constraint": null, "filters": 2048, "padding": "valid", "dilation_rate": [1, 1], "kernel_size": [1, 1], "name": "res_conv6_1_c", "activity_regularizer": null, "kernel_constraint": null, "activation": "linear", "use_bias": true}}, {"name": "add_1", "class_name": "Add", "inbound_nodes": [[["res_conv6_1_c", 0, 0, {}], ["post_relu", 0, 0, {}]]], "config": {"name": "add_1", "trainable": true}}, {"name": "bn_conv6_2_preact", "class_name": "BatchNormalization", "inbound_nodes": [[["add_1", 0, 0, {}]]], "config": {"scale": true, "trainable": true, "beta_constraint": null, "beta_initializer": {"config": {}, "class_name": "Zeros"}, "epsilon": 0.001, "gamma_initializer": {"config": {}, "class_name": "Ones"}, "gamma_constraint": null, "axis": -1, "gamma_regularizer": null, "center": true, "moving_variance_initializer": {"config": {}, "class_name": "Ones"}, "moving_mean_initializer": {"config": {}, "class_name": "Zeros"}, "momentum": 0.99, "name": "bn_conv6_2_preact", "beta_regularizer": null}}, {"name": "activation_4", "class_name": "Activation", "inbound_nodes": [[["bn_conv6_2_preact", 0, 0, {}]]], "config": {"name": "activation_4", "trainable": true, "activation": "relu"}}, {"name": "res_conv6_2_a", "class_name": "Conv2D", "inbound_nodes": [[["activation_4", 0, 0, {}]]], "config": {"strides": [1, 1], "trainable": true, "data_format": "channels_last", "bias_initializer": {"config": {}, "class_name": "Zeros"}, "bias_regularizer": null, "kernel_initializer": {"config": {"seed": null, "scale": 2.0, "distribution": "normal", "mode": "fan_in"}, "class_name": "VarianceScaling"}, "kernel_regularizer": null, "bias_constraint": null, "filters": 512, "padding": "valid", "dilation_rate": [1, 1], "kernel_size": [1, 1], "name": "res_conv6_2_a", "activity_regularizer": null, "kernel_constraint": null, "activation": "linear", "use_bias": true}}, {"name": "bn_conv6_2_b", "class_name": "BatchNormalization", "inbound_nodes": [[["res_conv6_2_a", 0, 0, {}]]], "config": {"scale": true, "trainable": true, "beta_constraint": null, "beta_initializer": {"config": {}, "class_name": "Zeros"}, "epsilon": 0.001, "gamma_initializer": {"config": {}, "class_name": "Ones"}, "gamma_constraint": null, "axis": -1, "gamma_regularizer": null, "center": true, "moving_variance_initializer": {"config": {}, "class_name": "Ones"}, "moving_mean_initializer": {"config": {}, "class_name": "Zeros"}, "momentum": 0.99, "name": "bn_conv6_2_b", "beta_regularizer": null}}, {"name": "activation_5", "class_name": "Activation", "inbound_nodes": [[["bn_conv6_2_b", 0, 0, {}]]], "config": {"name": "activation_5", "trainable": true, "activation": "relu"}}, {"name": "res_conv6_2_b", "class_name": "Conv2D", "inbound_nodes": [[["activation_5", 0, 0, {}]]], "config": {"strides": [1, 1], "trainable": true, "data_format": "channels_last", "bias_initializer": {"config": {}, "class_name": "Zeros"}, "bias_regularizer": null, "kernel_initializer": {"config": {"seed": null, "scale": 2.0, "distribution": "normal", "mode": "fan_in"}, "class_name": "VarianceScaling"}, "kernel_regularizer": null, "bias_constraint": null, "filters": 512, "padding": "same", "dilation_rate": [1, 1], "kernel_size": [3, 3], "name": "res_conv6_2_b", "activity_regularizer": null, "kernel_constraint": null, "activation": "linear", "use_bias": true}}, {"name": "bn_conv6_2_c", "class_name": "BatchNormalization", "inbound_nodes": [[["res_conv6_2_b", 0, 0, {}]]], "config": {"scale": true, "trainable": true, "beta_constraint": null, "beta_initializer": {"config": {}, "class_name": "Zeros"}, "epsilon": 0.001, "gamma_initializer": {"config": {}, "class_name": "Ones"}, "gamma_constraint": null, "axis": -1, "gamma_regularizer": null, "center": true, "moving_variance_initializer": {"config": {}, "class_name": "Ones"}, "moving_mean_initializer": {"config": {}, "class_name": "Zeros"}, "momentum": 0.99, "name": "bn_conv6_2_c", "beta_regularizer": null}}, {"name": "activation_6", "class_name": "Activation", "inbound_nodes": [[["bn_conv6_2_c", 0, 0, {}]]], "config": {"name": "activation_6", "trainable": true, "activation": "relu"}}, {"name": "res_conv6_2_c", "class_name": "Conv2D", "inbound_nodes": [[["activation_6", 0, 0, {}]]], "config": {"strides": [1, 1], "trainable": true, "data_format": "channels_last", "bias_initializer": {"config": {}, "class_name": "Zeros"}, "bias_regularizer": null, "kernel_initializer": {"config": {"seed": null, "scale": 2.0, "distribution": "normal", "mode": "fan_in"}, "class_name": "VarianceScaling"}, "kernel_regularizer": null, "bias_constraint": null, "filters": 2048, "padding": "valid", "dilation_rate": [1, 1], "kernel_size": [1, 1], "name": "res_conv6_2_c", "activity_regularizer": null, "kernel_constraint": null, "activation": "linear", "use_bias": true}}, {"name": "add_2", "class_name": "Add", "inbound_nodes": [[["res_conv6_2_c", 0, 0, {}], ["add_1", 0, 0, {}]]], "config": {"name": "add_2", "trainable": true}}, {"name": "bn_conv6_3_preact", "class_name": "BatchNormalization", "inbound_nodes": [[["add_2", 0, 0, {}]]], "config": {"scale": true, "trainable": true, "beta_constraint": null, "beta_initializer": {"config": {}, "class_name": "Zeros"}, "epsilon": 0.001, "gamma_initializer": {"config": {}, "class_name": "Ones"}, "gamma_constraint": null, "axis": -1, "gamma_regularizer": null, "center": true, "moving_variance_initializer": {"config": {}, "class_name": "Ones"}, "moving_mean_initializer": {"config": {}, "class_name": "Zeros"}, "momentum": 0.99, "name": "bn_conv6_3_preact", "beta_regularizer": null}}, {"name": "activation_7", "class_name": "Activation", "inbound_nodes": [[["bn_conv6_3_preact", 0, 0, {}]]], "config": {"name": "activation_7", "trainable": true, "activation": "relu"}}, {"name": "res_conv6_3_a", "class_name": "Conv2D", "inbound_nodes": [[["activation_7", 0, 0, {}]]], "config": {"strides": [1, 1], "trainable": true, "data_format": "channels_last", "bias_initializer": {"config": {}, "class_name": "Zeros"}, "bias_regularizer": null, "kernel_initializer": {"config": {"seed": null, "scale": 2.0, "distribution": "normal", "mode": "fan_in"}, "class_name": "VarianceScaling"}, "kernel_regularizer": null, "bias_constraint": null, "filters": 512, "padding": "valid", "dilation_rate": [1, 1], "kernel_size": [1, 1], "name": "res_conv6_3_a", "activity_regularizer": null, "kernel_constraint": null, "activation": "linear", "use_bias": true}}, {"name": "bn_conv6_3_b", "class_name": "BatchNormalization", "inbound_nodes": [[["res_conv6_3_a", 0, 0, {}]]], "config": {"scale": true, "trainable": true, "beta_constraint": null, "beta_initializer": {"config": {}, "class_name": "Zeros"}, "epsilon": 0.001, "gamma_initializer": {"config": {}, "class_name": "Ones"}, "gamma_constraint": null, "axis": -1, "gamma_regularizer": null, "center": true, "moving_variance_initializer": {"config": {}, "class_name": "Ones"}, "moving_mean_initializer": {"config": {}, "class_name": "Zeros"}, "momentum": 0.99, "name": "bn_conv6_3_b", "beta_regularizer": null}}, {"name": "activation_8", "class_name": "Activation", "inbound_nodes": [[["bn_conv6_3_b", 0, 0, {}]]], "config": {"name": "activation_8", "trainable": true, "activation": "relu"}}, {"name": "res_conv6_3_b", "class_name": "Conv2D", "inbound_nodes": [[["activation_8", 0, 0, {}]]], "config": {"strides": [1, 1], "trainable": true, "data_format": "channels_last", "bias_initializer": {"config": {}, "class_name": "Zeros"}, "bias_regularizer": null, "kernel_initializer": {"config": {"seed": null, "scale": 2.0, "distribution": "normal", "mode": "fan_in"}, "class_name": "VarianceScaling"}, "kernel_regularizer": null, "bias_constraint": null, "filters": 512, "padding": "same", "dilation_rate": [1, 1], "kernel_size": [3, 3], "name": "res_conv6_3_b", "activity_regularizer": null, "kernel_constraint": null, "activation": "linear", "use_bias": true}}, {"name": "bn_conv6_3_c", "class_name": "BatchNormalization", "inbound_nodes": [[["res_conv6_3_b", 0, 0, {}]]], "config": {"scale": true, "trainable": true, "beta_constraint": null, "beta_initializer": {"config": {}, "class_name": "Zeros"}, "epsilon": 0.001, "gamma_initializer": {"config": {}, "class_name": "Ones"}, "gamma_constraint": null, "axis": -1, "gamma_regularizer": null, "center": true, "moving_variance_initializer": {"config": {}, "class_name": "Ones"}, "moving_mean_initializer": {"config": {}, "class_name": "Zeros"}, "momentum": 0.99, "name": "bn_conv6_3_c", "beta_regularizer": null}}, {"name": "activation_9", "class_name": "Activation", "inbound_nodes": [[["bn_conv6_3_c", 0, 0, {}]]], "config": {"name": "activation_9", "trainable": true, "activation": "relu"}}, {"name": "res_conv6_3_c", "class_name": "Conv2D", "inbound_nodes": [[["activation_9", 0, 0, {}]]], "config": {"strides": [1, 1], "trainable": true, "data_format": "channels_last", "bias_initializer": {"config": {}, "class_name": "Zeros"}, "bias_regularizer": null, "kernel_initializer": {"config": {"seed": null, "scale": 2.0, "distribution": "normal", "mode": "fan_in"}, "class_name": "VarianceScaling"}, "kernel_regularizer": null, "bias_constraint": null, "filters": 2048, "padding": "valid", "dilation_rate": [1, 1], "kernel_size": [1, 1], "name": "res_conv6_3_c", "activity_regularizer": null, "kernel_constraint": null, "activation": "linear", "use_bias": true}}, {"name": "add_3", "class_name": "Add", "inbound_nodes": [[["res_conv6_3_c", 0, 0, {}], ["add_2", 0, 0, {}]]], "config": {"name": "add_3", "trainable": true}}, {"name": "global_average_pooling2d_1", "class_name": "GlobalAveragePooling2D", "inbound_nodes": [[["add_3", 0, 0, {}]]], "config": {"name": "global_average_pooling2d_1", "trainable": true, "data_format": "channels_last"}}, {"name": "dense_1", "class_name": "Dense", "inbound_nodes": [[["global_average_pooling2d_1", 0, 0, {}]]], "config": {"units": 107, "name": "dense_1", "trainable": true, "bias_regularizer": null, "kernel_initializer": {"config": {"seed": null, "scale": 1.0, "distribution": "uniform", "mode": "fan_avg"}, "class_name": "VarianceScaling"}, "kernel_regularizer": null, "bias_constraint": null, "activity_regularizer": null, "bias_initializer": {"config": {}, "class_name": "Zeros"}, "kernel_constraint": null, "activation": "linear", "use_bias": true}}], "name": "model_1", "input_layers": [["input_1", 0, 0]], "output_layers": [["dense_1", 0, 0]]}, "class_name": "Model", "backend": "tensorflow", "keras_version": "2.2.4"}